web/modules/PumpFrequency.onnx (onnx, 22479 bytes, 6 tensors)

fc1.weight f4 [64, 15]
000000 1b 8b 34 3e be 43 63 be 5c 67 3b bd 67 62 54 3e
       0.1763119 -0.2219381 -0.045752868 0.20740663
000010 20 54 e6 3c e6 d5 bf be 08 c0 bf 3e 0b ba 01 3c
       0.028116286 -0.3746788 0.37451196 0.007917891
000020 02 1a 91 bd 95 64 73 bd 0e 0c 60 3e cc e9 e6 be
       -0.07085039 -0.059422094 0.21879598 -0.45100248
000030 25 64 e2 3d 84 a3 f5 3d 6f 0a ff bd fe 36 94 be
       0.11054257 0.11994079 -0.12453162 -0.28948206
000040 21 2b bc bc 51 ac 2f 3e 98 66 70 3d a1 86 4f be
       -0.022969784 0.17155577 0.05869159 -0.202662
000050 29 aa 4c be 1c 67 c4 be 29 08 4a 3e 25 2f b9 3d
       -0.19986786 -0.38359916 0.19729675 0.09042195
000060 ca 72 48 be 47 a1 a1 3e 82 5c 62 bd df 2d 03 bf
       -0.19575039 0.31568357 -0.055264004 -0.5124187
000070 b7 66 07 3d 56 42 ae 3d 0e 80 be bd 00 36 8c ba
       0.03305694 0.08508746 -0.09301768 -0.0010697246
000080 86 a6 3d be ee 83 4d be 95 34 59 be 06 30 27 be
       -0.18520555 -0.20069858 -0.21211465 -0.16326913
000090 ee 65 4c 3e c8 fd c1 bc fd b3 25 be 40 0c 93 bc
       0.19960758 -0.023680583 -0.16181941 -0.017950177
0000a0 0c e4 86 3d 00 f5 59 3c cc e7 3a be 00 f1 a4 3a
       0.06586465 0.013303041 -0.18252486 0.0012584031
0000b0 d4 c4 c9 3d 5c a1 1a 3e 00 8f 01 3e 9e c6 df bd
       0.09851995 0.15100616 0.12652206 -0.10926555
0000c0 b6 85 50 3e 9e 9a 82 be 69 db 62 3e 85 df 15 bd
       0.20363507 -0.2550859 0.22154011 -0.036590118
0000d0 cd 51 7f bb 87 5d 52 3e 8b ce 50 be 89 e9 5c be
       -0.003895867 0.2054349 -0.2039129 -0.21573462
0000e0 46 59 80 3e f3 de de bc f6 d6 66 3e 9f 9c e3 3e
       0.2506811 -0.02720592 0.22542939 0.4445543
0000f0 bd 1b 2e 3e 43 d2 97 be cb 90 9b 3c c9 6a 8f be
       0.17002769 -0.29652604 0.018989941 -0.28011158
000100 4a 46 54 3d 01 c9 16 be 75 c1 7a be 3d df 67 bd
       0.051824845 -0.14725114 -0.2448786 -0.05660938
000110 a0 03 48 be 93 ac 2a be b3 e5 6e bd e5 c1 71 3d
       -0.19532633 -0.16667394 -0.058324527 0.059022803
000120 68 ea 2c 3f ff c1 0b bf 9d 07 e0 3e 74 f6 25 3e
       0.67545176 -0.5459289 0.43755808 0.16207296
000130 c0 ca 03 3d 6a 36 9a bd 40 f2 ec 3d 6e a3 60 be
       0.03217578 -0.0752991 0.11569643 -0.21937343
000140 d0 a3 df 3c e0 93 5b 3c 72 ea 70 be 20 df af bd
       0.027299792 0.013401955 -0.23526934 -0.085874796
000150 f6 56 57 be cc 80 99 3d 8e da 13 3e f2 b6 75 3e
       -0.21029267 0.07495269 0.14438841 0.2399557
000160 b7 e3 44 be 34 7e d6 3d 3f e8 7d be f0 26 58 be
       -0.19227491 0.1047329 -0.24795626 -0.21108603
000170 e5 5f 28 3e 65 39 b9 bd 9f d2 1f 3d f2 30 f7 3d
       0.16442831 -0.0904415 0.039019223 0.120698825
000180 14 5e 83 3d 13 b1 a1 bb 91 65 28 be f3 e0 6a 3d
       0.06414428 -0.004934439 -0.16444995 0.057343435
000190 cd 8d 65 be 5c c6 49 bd 52 f5 f0 3e e1 d3 d4 be
       -0.22417374 -0.049261436 0.47062165 -0.415679
0001a0 12 0c 80 3f c6 0c 91 bd 20 08 13 3c a4 93 51 be
       1.0003684 -0.070825145 0.008974105 -0.20466477
0001b0 d0 97 f6 3c 07 ed 03 be 0e 4f 62 3e aa 35 f7 bd
       0.030101687 -0.12883388 0.2210047 -0.120707825
0001c0 1c 6b 72 be 77 ed 6f be 70 30 30 bd 40 42 d7 bb
       -0.23673671 -0.2343043 -0.043014944 -0.006569177
0001d0 e8 3d 66 bd e6 d3 68 be ae c3 ee bd 94 70 07 3e
       -0.056211382 -0.22737083 -0.11658417 0.13226539
0001e0 16 85 26 be f4 da 97 be 96 b8 01 3e 3a 04 80 be
       -0.16261706 -0.29659235 0.1266807 -0.25003225
0001f0 d3 75 f9 bd d9 72 e9 3c f0 77 40 3e dd 59 89 be
       -0.12180676 0.028497146 0.18795753 -0.26826373
000200 2f a5 5c be 3e f8 75 bb ed 27 25 3e 8b 0a 6e 3e
       -0.21547388 -0.0037531997 0.16128512 0.2324621
000210 f2 13 85 3f 34 ec 91 bc db 38 89 bd 6e b9 64 be
       1.0396712 -0.017812826 -0.067002974 -0.22336361
000220 ac 49 ff bd f4 65 2f bd 20 e4 2c 3d 16 34 49 be
       -0.12465224 -0.04282184 0.042209744 -0.19648775
000230 c8 dd e4 bd 42 62 44 3e 54 d6 a0 3d e2 82 44 3e
       -0.11175114 0.19178107 0.0785338 0.19190553
000240 a4 9e dd bd 56 d8 28 be 2a 23 24 be e6 fe a4 bd
       -0.10821274 -0.16488776 -0.16029039 -0.080564305
000250 90 8c 30 3e 90 f6 1b 3d 29 b5 41 3d 80 04 45 3e
       0.1724112 0.038076937 0.04729191 0.19239998
000260 89 38 7f be bf fb 31 bd 9a c3 c4 3d ce 8d 17 bd
       -0.2492391 -0.043452974 0.096076205 -0.03700047
000270 c3 b5 2a be bd b0 87 be c8 2b 9b 3d 2e b7 02 3d
       -0.16670899 -0.26502028 0.0757671 0.031912975
000280 ea 1d 56 3e 68 ea 33 bb 22 5a 24 bd 95 07 33 3e
       0.20909849 -0.002745295 -0.04012502 0.17483361
000290 80 11 98 3e 3b 55 87 bc 50 c0 a2 bc 48 70 1d be
       0.2970085 -0.016520133 -0.019867092 -0.15374863
0002a0 92 43 1b 3e 78 29 19 3c be d7 b6 3d 18 06 f8 bc
       0.15162495 0.009348266 0.08927868 -0.030276343
0002b0 ee 2c 89 be 45 59 fb 3d f4 03 c2 bd a4 8e 34 3c
       -0.2679209 0.12272886 -0.0947341 0.011020336
0002c0 26 83 e7 be ea 06 2c 3e 74 b0 02 3e ba cc bc 3e
       -0.45217246 0.16799513 0.12762624 0.36874944
0002d0 19 91 0a 3e 08 c3 1a be 3a 92 9f bd c7 26 cf bd
       0.13531913 -0.15113461 -0.077915624 -0.10114818
0002e0 e5 2b 07 be 08 8d 4c bb ea 1e 57 3e a4 64 ad bd
       -0.13200338 -0.003121199 0.21007887 -0.08466461
0002f0 df 3b 7a be 69 6b b6 3d c0 22 83 bc 27 bd 62 3b
       -0.24436902 0.089072056 -0.016007781 0.0034597607
000300 fd c0 f5 3d 09 33 8c 3d f4 47 e3 3d 65 df cc 3c
       0.119997 0.06845672 0.11097708 0.025008867
000310 64 47 28 3d 76 93 aa 3d 01 db 2a bc 6e 4c 89 be
       0.04108371 0.08328907 -0.010428191 -0.26816124
000320 67 16 86 be f7 95 10 be 9e 0a a8 bd e4 1c 2e be
       -0.26188967 -0.14119707 -0.0820515 -0.17003208
000330 0e 63 90 be fc d4 21 3e 3b 85 40 bd 66 51 52 3f
       -0.28200573 0.15803903 -0.04700206 0.82155454
000340 fc de 7b 3e e4 77 35 bf 49 59 d4 3d 7d ab 14 be
       0.2459678 -0.70886064 0.10368592 -0.14518543
000350 9e 44 9c 3d 1f e7 c2 bd a4 76 87 3d 26 8c 94 be
       0.07630275 -0.09516739 0.06614426 -0.29013175
000360 43 1b 90 bd c7 4d 0c be 97 2f bc bb aa 36 8e be
       -0.0703645 -0.13701545 -0.005742978 -0.2777608
000370 65 14 f9 be 25 75 7a 3d 97 e9 80 bd 22 22 d3 3d
       -0.48648372 0.061146874 -0.06294554 0.10309245
000380 81 6a 36 3f 64 5e 37 be ee ab 1c 3e 88 2f ee bc
       0.7125626 -0.17907101 0.15299961 -0.029075399
000390 46 4b 88 be 5f 8a 67 3e c8 46 17 3c ed bf ee bc
       -0.2661993 0.22611378 0.009233184 -0.029144252
0003a0 bb 51 cc bd b8 75 06 be 51 c2 d9 3c 3c 3f bc 3e
       -0.09976526 -0.13130844 0.026581915 0.36766994
0003b0 fa 33 a6 bd 1d 97 06 3e 8a 58 97 3e 7b 0a 11 3f
       -0.081153825 0.13143583 0.29559737 0.56656617
0003c0 1f fc 5e be 76 1c 2f be b0 45 76 bd 10 e6 d6 3d
       -0.21775864 -0.171007 -0.060125053 0.104931
0003d0 bf 06 f2 bd be be dd 3d a8 74 ac be a9 20 53 3e
       -0.11817693 0.10827397 -0.33682752 0.20617928
0003e0 e8 6a f4 bd db 0d 03 3e ef 91 bb be f3 03 fd 3d
       -0.11934453 0.12798254 -0.36634776 0.12354269
0003f0 93 22 d1 3e f6 51 e0 be e6 44 2e be 63 7c 68 be
       0.4084669 -0.4381253 -0.1701847 -0.227037

fc1.bias f4 [64]
000000 93 2c 46 bd a8 37 12 be 58 0a f9 bc 95 94 a8 3e
       -0.048382353 -0.14279044 -0.03040044 0.3292586
000010 b8 ad 36 be e2 40 2a be f7 57 00 be 70 f5 15 bd
       -0.17839706 -0.16626313 -0.12533556 -0.03661102
000020 a5 b9 14 bd e6 cc 07 be 81 14 e1 3c f8 b3 8b 3e
       -0.036309857 -0.13261756 0.027475597 0.27285743
000030 86 d6 26 3e a7 04 43 bd 4a 27 00 3e 72 ba c2 3e
       0.16292772 -0.04761186 0.12514988 0.3803287
000040 4c 89 ca 3c f1 d1 92 be 50 f0 05 3e 54 44 14 be
       0.024723671 -0.28675798 0.13079953 -0.1447919
000050 20 ce 01 be 1c 5b 2e 3c 72 8f 5f 3e c8 83 88 be
       -0.12676287 0.010641839 0.21832064 -0.2666304
000060 52 43 4a bd c6 fa d0 3e 18 80 88 3e 2e 44 2b be
       -0.049380608 0.40816325 0.26660228 -0.16725227
000070 92 6e 32 3c 3f 24 bd bd 9b 4e d8 3d df ee 9c 3e
       0.01089062 -0.09235429 0.10561868 0.30650994
000080 ac 2d 07 be 36 ee 44 be 47 df 22 be d5 37 a3 bd
       -0.13201016 -0.19231495 -0.15905486 -0.079696335
000090 b1 2c a5 3d f9 50 19 3d ee d0 b3 3d 2e 1b 1b 3d
       0.08065165 0.037430737 0.087800846 0.037867717
0000a0 44 9f ca 3d 3d 34 86 3e 71 9c a2 3e cc 65 50 3e
       0.09893659 0.2621173 0.3175998 0.20351332
0000b0 62 a4 65 bd 98 e1 41 be 1f 85 6e bd 36 56 84 3e
       -0.05606497 -0.18933713 -0.058232423 0.25847024
0000c0 b6 b0 40 3e 12 c5 9e bd b0 08 8b 3e 64 21 25 bd
       0.1881741 -0.07752432 0.27155066 -0.040315047
0000d0 6d 18 99 3d ad 10 df bd c7 d7 49 be b0 5d ba bd
       0.07475362 -0.108918525 -0.19711219 -0.09099901
0000e0 d4 4b a1 3d 50 4a 4e be 7b e6 39 be 1c c9 4a bd
       0.07875791 -0.20145535 -0.18154328 -0.0495082
0000f0 da 5c f1 3d 32 ad b1 3e 24 f1 ff 3e 30 f1 36 3e
       0.11785288 0.3470245 0.49988663 0.17865443

fc2.weight f4 [64, 64]
000000 8c a3 91 bd c7 95 32 bd 80 ef 6d bb 99 66 04 bd
       -0.07111272 -0.04359987 -0.0036306083 -0.032324407
000010 29 18 94 3d ee 50 da bd 55 24 af bd 30 24 c6 bd
       0.07231171 -0.10659967 -0.08551852 -0.09674871
000020 c7 bc ad bd cc 83 c3 bd 17 24 ce 3d de 67 bc 3d
       -0.08483272 -0.09546623 0.10065477 0.091994986
000030 46 9e 57 bd 5c 3c 3a 3d a3 59 d4 3d 3f ab 33 be
       -0.052641176 0.04546772 0.10368659 -0.17545794
000040 ae 5f 73 3d fc c1 a9 be 1a 51 ed 3d 60 e6 6d 3c
       0.05941742 -0.3315581 0.115877345 0.014520258
000050 55 3d 40 3d a0 cd bb bc 98 96 3a 3d df 52 76 bc
       0.04693349 -0.022925198 0.045553774 -0.015034406
000060 81 33 b7 3d 78 56 87 3d fb eb f8 3d 4f 7d 82 3d
       0.089453705 0.066082895 0.12154385 0.06371557
000070 9c 29 b9 3d e5 cb 94 3d 30 c1 8e bc 99 67 39 3e
       0.090411395 0.07265452 -0.017426103 0.18105926
000080 98 cb fd bc e0 1a f6 3c 4c cb 3c bd 24 34 c8 bd
       -0.03098087 0.030042112 -0.046092317 -0.0977557
000090 a9 15 72 3d 96 45 1f bd ab a9 cb bb ed 70 b3 3d
       0.059102688 -0.03888472 -0.0062152944 0.08761773
0000a0 6c 0a 86 3d 2e e3 cb bc 27 7f 9e bd 55 2b 8a 3c
       0.065449566 -0.024888601 -0.07739096 0.016866365
0000b0 ae 72 e5 3d d8 c0 83 be f9 95 11 3d f0 d7 bb 3d
       0.11203514 -0.25733066 0.035543416 0.09172046
0000c0 2c f7 2b 3d 9f 17 02 3c 4c 1d 5a 3c 4c fb 51 3d
       0.04198377 0.007940202 0.013312649 0.051265046
0000d0 90 61 6a be 97 5b b4 3d 5b ff 10 be 86 60 cb bd
       -0.2288878 0.08806532 -0.1415991 -0.0993052
0000e0 32 ef bc bd 88 f4 d2 be c4 82 de bd 34 d3 14 3d
       -0.092253104 -0.41202188 -0.10864785 0.03633423
0000f0 91 27 e2 bd 0a a7 04 bd cb 20 85 3c 00 9f b8 3d
       -0.11042703 -0.032385863 0.016250988 0.09014702
000100 18 73 04 3e 06 be 13 3d 80 4a eb 3d e5 58 fd bc
       0.1293453 0.036069892 0.11488819 -0.030926177
000110 b0 67 53 3d d8 99 de 3d 05 e6 23 bf b8 b4 cf bc
       0.051612556 0.10869187 -0.64022857 -0.025354728
000120 c5 b6 d4 bd a0 59 57 3d 2a f9 9e 3d de dc 26 bc
       -0.10386423 0.052575707 0.07762368 -0.010184495
000130 c9 7c e3 3d c6 13 9b 3d 94 99 38 bc 0a 2f f0 bd
       0.11107785 0.07572131 -0.011267085 -0.11727722
000140 89 6a 91 bd 97 2e 21 bf 0c 86 90 3d 50 3f cd bd
       -0.07100398 -0.62961715 0.070568174 -0.100218415
000150 16 8c 4a 3d 0e a3 a7 3d b4 cd 74 3c 07 55 2e bc
       0.049450003 0.08185397 0.014941622 -0.010640389
000160 f9 8e 81 bd 02 ac 04 3e 4c 12 98 3c 1f 17 04 3e
       -0.06326098 0.12956241 0.018563412 0.12899445
000170 97 9c d1 3d c4 97 b5 bd f5 a7 99 bd ed 72 4f bd
       0.10234945 -0.088668376 -0.075027384 -0.05064671
000180 60 7f 9a bd e0 46 e3 3b 0b ed 64 be 63 db b5 bd
       -0.07543826 0.006935939 -0.2235605 -0.08879735
000190 5c 9b ec 3d 77 53 40 bb 32 4d 9a bf e7 5e ab 3e
       0.1155307 -0.0029346624 -1.2054808 0.33470842
0001a0 58 df e4 3d d5 0f de 3c ee d5 ff bd a6 b0 01 3d
       0.11175412 0.027107159 -0.12491976 0.031662606
0001b0 51 06 40 be 67 32 a9 3d ee d7 db 3d a2 9a d3 3e
       -0.1875241 0.082615666 0.10734545 0.41328913
0001c0 10 08 38 bd 70 30 47 bd f5 82 84 bf 98 dc 95 bc
       -0.044929564 -0.048630178 -1.0352465 -0.018293664
0001d0 97 0a 32 bc fb 51 85 bd 9d 47 ae bd 09 76 82 bc
       -0.010866783 -0.06509777 -0.08509753 -0.015925424
0001e0 fc 34 59 3d 2f 0b f5 be 07 b3 7f 3d 48 f3 eb bd
       0.053029045 -0.47860095 0.062426593 -0.115210116
0001f0 db 33 e7 3d 1c df e6 3c 55 7f ce bc 8a 76 dc bd
       0.112891875 0.028182559 -0.025207201 -0.10764797
000200 ba 08 8d 3d eb 36 bd 3d 52 fe 9e 3d 42 cb b0 3c
       0.0688643 0.092389904 0.077633515 0.021581296
000210 9d 82 67 bc 60 9f 17 3c a5 64 eb bd c4 f0 1e bd
       -0.014130262 0.009254307 -0.11493806 -0.03880383
000220 9b be bc 3d 04 df f9 bd ee 57 1f 3d 94 46 0e bd
       0.092160426 -0.1220074 0.038902216 -0.034735277
000230 46 e9 89 bd 09 f4 9e bd 22 c3 e1 3d 72 b3 8c 3d
       -0.067339465 -0.0776139 0.11023547 0.06870164
000240 03 a2 48 3d d3 9d ea bc 18 76 9d 3d 86 64 99 bd
       0.04898263 -0.02863971 0.0768854 -0.074898764
000250 fc 9c 0e be 48 3c 80 3d 97 de 08 bc a4 91 b0 bb
       -0.13927072 0.06261498 -0.008353851 -0.0053884555
000260 bd b2 fd bd 82 a5 81 3d a5 0f a9 bd b8 bc 06 be
       -0.12387607 0.06330396 -0.08254937 -0.13157928
000270 12 c3 65 3c 99 9a 05 be f7 ad cc bd 63 43 b5 bd
       0.014023559 -0.13047256 -0.09994119 -0.088507436
000280 52 02 cf bd 00 87 4b bb 5d 1a da bd e2 59 dc 3d
       -0.101078644 -0.0031055808 -0.1064956 0.10759331
000290 ae 50 8e 3c 4c c2 87 3d 48 ba c4 3d e0 62 4b 3d
       0.017372455 0.06628856 0.09605843 0.04965484
0002a0 44 93 9c 3d 44 d9 c1 bd 4d ca fb bc fa 84 b6 bd
       0.07645276 -0.09465268 -0.030736113 -0.08912082
0002b0 7b b8 b6 bd 10 0c 6b 3d b2 fb 94 bd 4c f4 07 3d
       -0.089219056 0.05738455 -0.072745696 0.033191964
0002c0 d0 90 03 bd 11 40 96 3d 32 08 de 3d 80 4d c0 ba
       -0.032120526 0.073364384 0.10841407 -0.0014671534
0002d0 8c b3 62 bd 5f ca d6 3d 73 a8 4c bd 54 63 bb bd
       -0.05534701 0.10487818 -0.049965333 -0.09149805
0002e0 18 ff 84 bd 47 1d c6 bc d3 2b 20 bd d6 37 dc bd
       -0.06493968 -0.024183882 -0.039104294 -0.10752837
0002f0 34 4f 72 bb 8f 4e 5d bc 96 c9 9b bd 8e 16 e8 bd
       -0.0036973478 -0.013507499 -0.07606809 -0.11332427
000300 e6 47 8f 3d 20 ea 2d 3d 46 4b d3 bd 58 a9 f3 bc
       0.069961354 0.042459607 -0.10317092 -0.029743835
000310 20 7e fd 3d 24 26 c5 bd 56 4c c3 3d 58 39 b1 3c
       0.12377572 -0.09626415 0.09536044 0.021633789
000320 b8 54 45 3d fe d0 a3 bd d8 67 da 3c c6 1e ea bd
       0.048176497 -0.079988465 0.026660845 -0.11431651
000330 c6 41 bb bd 48 11 a1 3d 78 7a fc 3d d8 32 71 bd
       -0.09143405 0.07864624 0.123280466 -0.05888638
000340 b4 d2 93 3d e0 71 bc 3b e0 4d b0 3d 50 6b eb bc
       0.07217923 0.0057508796 0.086086035 -0.028737694
000350 1a c5 d7 3d 58 f1 8d 3d fe fe ca bd c8 5a f4 3c
       0.10535641 0.06930798 -0.09911917 0.029828444
000360 46 ef a8 3d 36 81 f7 bd c0 64 1c 3c 00 c8 0c ba
       0.08248763 -0.12085192 0.009545505 -0.00053703785
000370 ca 85 92 3d c8 a3 99 3d de 99 9c bd b8 d4 97 bc
       0.071544245 0.07501942 -0.07646535 -0.01853405
000380 b6 47 92 bd 72 a2 b4 3d 48 d7 56 3d 30 1f f4 3c
       -0.07142584 0.088200465 0.052451402 0.029800028
000390 40 27 80 bd 78 58 9a bd 00 71 d7 3a 88 94 85 bd
       -0.06257486 -0.07536405 0.0016436875 -0.06522471
0003a0 88 29 d8 3d a6 ea ce bd 64 e1 1d 3d 14 68 e7 bd
       0.105547965 -0.101033494 0.038545027 -0.11299148
0003b0 38 01 cf 3c 0a f4 c8 3d be 60 dc bd 00 96 83 bd
       0.025269136 0.09812172 -0.107606396 -0.064250946
0003c0 80 c5 9b 3d ea 6b d9 bd 1e 4e 84 bd c8 56 fb bd
       0.076060295 -0.10616286 -0.06460212 -0.122724116
0003d0 e8 1c 42 bd 08 15 e3 bd 00 77 b5 bd d4 c6 3a 3d
       -0.04739085 -0.11087996 -0.08860588 0.045599774
0003e0 9c a6 3e 3d 70 fd 02 bc 24 10 76 bd c4 99 5c 3d
       0.04654561 -0.0079949945 -0.060073987 0.05385758
0003f0 3a 35 bf bd 80 11 3c bd f0 27 b2 bd 00 57 25 3b
       -0.09336324 -0.045915127 -0.08699024 0.0025228858

fc2.bias f4 [64]
000000 28 64 56 3d 28 70 2c bd 77 c6 bf bd 40 df 1d 3b
       0.05234161 -0.042099148 -0.09364026 0.0024089366
000010 6b b9 43 bd ff 13 eb 3d 44 0e 6e 3d cb f0 e0 3d
       -0.04778425 0.11478423 0.058119074 0.109834276
000020 4e 98 8c 3e 8b 36 f1 bd 89 35 fa 3d c9 8c ac bd
       0.2745995 -0.11777981 0.12217242 -0.0842529
000030 63 91 92 3c dc 61 3f 3e 90 d9 3e bc 90 ae b6 3d
       0.017891591 0.18689674 -0.011648551 0.08920014
000040 ed 51 04 be 3a c5 72 3e 01 86 c2 3d 69 a9 97 bd
       -0.12921877 0.23708048 0.094982155 -0.07405359
000050 40 44 86 3e ad d8 1d 3e 83 04 e5 3d c1 2c 0b be
       0.26223946 0.15414687 0.11182501 -0.13591291
000060 a3 e0 dd bd 8a 0b aa 3d 3b d7 0c be 2f 80 21 be
       -0.10833862 0.08302982 -0.13753979 -0.15771554
000070 38 49 26 3d af 1b d6 bd a2 51 c6 be 61 f6 4e bd
       0.04059717 -0.10454499 -0.38734156 -0.050527934
000080 5a ae 14 be 35 5c 5d bc b6 f6 35 3d 19 be 29 3e
       -0.14519635 -0.013510753 0.044424735 0.16576423
000090 22 0c b9 bd 1c c1 9a bd 4b e4 4d be 03 37 93 3c
       -0.09035517 -0.07556364 -0.20106618 0.017970568
0000a0 8e cc 15 3e a7 24 fb bd 04 b0 82 bd 2d fc 24 3c
       0.14628813 -0.1226285 -0.063812286 0.010069889
0000b0 3a ab f9 3d 52 47 01 3e 68 a6 c3 3e b4 ec d9 3d
       0.12190862 0.12624863 0.38212895 0.10640851
0000c0 78 e4 d5 bc 43 45 ba 3e 78 e4 a0 bd 6e a0 4d be
       -0.026109919 0.36380967 -0.07856077 -0.2008073
0000d0 fe 5e c9 bd 24 7f cb 3c 96 78 03 be e0 14 af 3d
       -0.098325714 0.024840899 -0.12838969 0.085489035
0000e0 39 26 d9 3d d0 6d 30 3c c6 6e df 3d bc 0e a7 3d
       0.106029935 0.010768369 0.109098 0.08157107
0000f0 8f 2b 6d bb e1 ef bf 3c f2 59 10 be f2 be d7 3d
       -0.0036189293 0.023429813 -0.14096811 0.10534467

fc3.weight f4 [4, 64]
000000 42 c6 5d 3d 4d a1 c7 bd 2f cc 99 bd 16 3d ef 3d
       0.05414415 -0.097475626 -0.07509648 0.11681573
000010 4e 4f 03 3d fc 6c 33 bc 50 df 16 3c 0b ba df 3c
       0.032058053 -0.010951277 0.009208515 0.027310392
000020 fe 10 89 3e a5 90 81 bd fc 44 a1 3d f7 98 80 3c
       0.26770777 -0.06326417 0.07874486 0.01569794
000030 fd e3 21 bc 73 bf 4d 3e d8 c3 66 3d ba b3 a6 3d
       -0.009881017 0.20092563 0.056339115 0.08139749
000040 d7 60 d3 bc 0f e1 8b bd 0a ff 71 bd ea 76 d9 bd
       -0.025803013 -0.06830036 -0.059081115 -0.10618384
000050 13 7c 1f 3e 43 60 52 3c cd a7 04 be 1b a5 2a bd
       0.15574674 0.012840333 -0.12954636 -0.041661363
000060 0e 5a 66 ba 64 5c a4 3b 53 e0 f4 bb 7c 71 b8 bd
       -0.0008787223 0.0050158966 -0.0074730306 -0.090060204
000070 68 1d 86 bc 0a 67 95 3c a0 75 0c be 95 6a eb be
       -0.016371444 0.01823761 -0.13716745 -0.45979753
000080 41 61 73 3d b0 7e 1a bd 6c eb ad bd df 08 1e 3e
       0.05941892 -0.037718475 -0.08492169 0.15433072
000090 25 e1 c9 bd 10 b0 c5 bc f9 00 95 be cf 76 c3 bd
       -0.09857396 -0.024131805 -0.29102305 -0.09544145
0000a0 ef 59 24 bd bd c4 7a bd 6f ad 3c bd f9 cb e6 3d
       -0.04012483 -0.06122278 -0.046063837 0.112693734
0000b0 dd 2b ff be 7c 9f eb 3c 64 b5 3d 3e 54 5d 52 3d
       -0.49838153 0.028762572 0.18526226 0.051358536
0000c0 d4 09 83 bd ec 90 7c 3c 4e b6 15 3b 49 fa fc bc
       -0.06398359 0.015415411 0.0022844258 -0.030881064
0000d0 44 61 bf bd 8a 11 09 3d 12 34 9d bc a7 19 a8 bd
       -0.09344724 0.033463992 -0.019189868 -0.08208018
0000e0 b2 08 9d 3d 88 88 ba 3d 44 1c 50 3e a0 dc 9b 3d
       0.07667674 0.091080725 0.20323282 0.0761044
0000f0 59 87 2f 3c 8e fd 8a 3c 48 0d 57 3d 8e af e1 3d
       0.010713422 0.016966607 0.0525029 0.110198125
000100 9c 86 8b bd 52 d5 be 3c a0 2e 86 3c b0 ad 11 3c
       -0.06812784 0.023295078 0.016379654 0.008891508
000110 fb 86 22 3d fd db 92 bd a0 e2 e8 bd 00 e9 44 3d
       0.03967951 -0.07170866 -0.1137135 0.04807377
000120 40 75 3e 3c 0b e6 5e 3d d7 bc 68 3c ce cb 60 3d
       0.011624634 0.054418605 0.014205179 0.054881863
000130 28 39 2b 3c 1b f2 23 3d 28 6d d6 3d 58 de 31 3c
       0.010450639 0.04002581 0.10470039 0.010856234
000140 23 55 39 3d 32 3b 98 3b 78 20 49 3c 21 ea 49 bd
       0.04524721 0.0046457285 0.012275808 -0.04929555
000150 ea 9f b5 ba de 33 87 bc 63 77 4f bd 38 d4 81 bb
       -0.0013856862 -0.016504224 -0.050650965 -0.003962066
000160 83 ea 08 3b 12 26 68 bd bc 6d ee bd 3b 07 0a be
       0.0020891733 -0.05667693 -0.11642024 -0.1347932
000170 10 a7 10 3d fa 8a 96 3c 1d 7c df 3b f3 8d ce bb
       0.035315573 0.018376816 0.0068202154 -0.0063035428
000180 79 b9 86 3b 97 4a 9c 3d 96 60 5c bd 96 a3 f6 bc
       0.0041114655 0.076314144 -0.05380305 -0.0301073
000190 8b e1 d8 bc cc a0 91 bd ff 4e 69 3c 8d 1b 9d 3d
       -0.026474735 -0.07110748 0.014240026 0.076712705
0001a0 51 63 95 bc 13 f0 1b bd 05 59 22 3d e6 3f aa bd
       -0.018235834 -0.03807075 0.039635677 -0.08312969
0001b0 9d 9e 18 3c 28 75 9f 3d 16 90 bc bc 03 c0 bb 3d
       0.00931516 0.07786018 -0.023017924 0.09167483
0001c0 62 d7 d6 3d 6a 3b 83 bc 18 a6 be 3d d2 73 24 bd
       0.104903 -0.016019542 0.093090236 -0.040149517
0001d0 3e 0f ae 3d 47 17 9d 3d 03 bc dc 3c 34 df 3f bd
       0.08499001 0.076704554 0.02694512 -0.046843722
0001e0 dd 54 85 bb 50 8c 1d bd 03 99 a3 3c 10 80 d5 3c
       -0.0040689544 -0.03846389 0.019970423 0.026062042
0001f0 51 da 97 3d 76 bf f1 bc 36 e5 ae 39 18 30 8b bc
       0.074146874 -0.029510241 0.00033358642 -0.016990706
000200 c0 93 71 3d 2a 4c 32 3e fd 15 a0 bd 88 4d fd bc
       0.058978796 0.17411867 -0.07816694 -0.030920759
000210 f4 a0 dd bd d3 d0 c5 3c c4 00 3b bd 5b a4 d5 3d
       -0.10821715 0.024147427 -0.045655027 0.10431739
000220 38 6a 25 be 88 c5 a1 3d d2 75 8d 3d 91 6f 91 bd
       -0.161538 0.07899004 0.06907238 -0.07101358
000230 0b 52 be 3d dd 9f fa 3d b4 53 72 3d 15 45 66 3b
       0.09292992 0.12237523 0.059161857 0.003513639
000240 0c 95 74 bd c5 28 65 3e 58 03 d2 bd e8 3a a0 3d
       -0.059712455 0.22378834 -0.10254544 0.078237355
000250 bd 79 07 be 5e fe 98 be cd 17 3c 3e 2e 4d af bc
       -0.13230033 -0.29881567 0.18368454 -0.021399107
000260 30 8d c2 3c a1 1a 08 3d f2 59 54 3d 61 f4 77 bd
       0.023748964 0.03322852 0.05184359 -0.060535792
000270 00 20 eb ba 29 2c 37 3d bb 68 db 3d ae b1 74 3e
       -0.0017938614 0.04471985 0.10713335 0.23895904
000280 79 ab d2 3b e5 a3 c9 3c 2d 10 62 3d 1c 71 9e bd
       0.0064291325 0.024614284 0.055191208 -0.07736418
000290 19 04 72 bc c0 6a cb 3b 97 f2 9f 3c 0c d0 83 3d
       -0.014771485 0.006207794 0.019524856 0.06436166
0002a0 8f 03 28 3d 2e 75 90 3d 46 3a 73 bd f7 93 75 3d
       0.04101902 0.070536 -0.059381746 0.059955563
0002b0 4d 1b 43 bf 41 46 02 3e b3 dc 99 3e e2 3d cd bd
       -0.7621353 0.12722112 0.30051193 -0.10021569
0002c0 cc b2 c6 bd d5 4e a3 3b a8 af 56 3d ee 3e 81 be
       -0.097020715 0.0049837627 0.052413613 -0.25243324
0002d0 06 c0 e3 3d 69 8e f9 3c 46 24 97 bd 82 3b bd bc
       0.1112061 0.030463414 -0.073799655 -0.023099665
0002e0 76 3e 81 3d e8 09 79 3d d6 a1 ac bc 6e 3e 0c 3a
       0.063107416 0.060800463 -0.021073263 0.0005349879
0002f0 03 65 d6 bd dd 3e 77 bc 72 29 0f bd fe 40 89 bd
       -0.10468485 -0.015090671 -0.034951635 -0.067018494
000300 9f 7c 6d bd 1f 15 29 be f3 83 12 3d e0 66 82 3b
       -0.057980176 -0.16511963 0.035770368 0.003979549
000310 39 08 6f 3d b6 02 ca bd 34 c3 e8 bd a6 6e 78 3d
       0.05835745 -0.09863798 -0.11365357 0.060652398
000320 51 af a9 bc 9d ee c4 3d cb b7 b9 3d 18 eb 0d 3e
       -0.02071348 0.09615824 0.09068259 0.13859212
000330 6e 47 7f bc 0e 43 c8 3d 70 49 e4 bc 47 82 30 3d
       -0.015580995 0.09778415 -0.027867049 0.043092992
000340 6a 38 88 3d 1e f7 9c 3d 57 78 78 bd 4f 09 f6 bb
       0.06651385 0.07664321 -0.06066164 -0.007508434
000350 10 9a ce 3d 53 ad 55 be 0b 5c 22 3e fc b4 86 3c
       0.10087979 -0.20866899 0.15855424 0.016443722
000360 e9 fc a0 ba 40 c1 24 bd 71 cb 71 3d 14 e3 be 3d
       -0.0012282404 -0.04022336 0.059031907 0.093206555
000370 98 c5 65 3d 57 25 1f bd ba f6 9a be 5b 26 5f 3d
       0.056096643 -0.03885397 -0.30266362 0.054479938
000380 e8 66 33 bd 87 04 f6 bc ec 3e 57 3b d7 cc 9b 3d
       -0.04379931 -0.030031456 0.00328439 0.076074295
000390 12 78 99 bd 5e 16 ae bd 8c 0b 9a bd 61 da 8e 3c
       -0.07493605 -0.0850036 -0.07521734 0.017438116
0003a0 3d 83 8f 3d c2 8e 3c bb f0 83 a9 3d 00 22 73 3c
       0.070074536 -0.0028771614 0.08277118 0.014839649
0003b0 66 91 bd bd ad cc 9c 3d c6 18 20 3e 26 bd 56 3d
       -0.09256248 0.07656226 0.1563445 0.05242648
0003c0 90 46 b5 bd 2c 13 1d 3e 9c de 69 3d aa f3 a6 3d
       -0.08851349 0.15339345 0.057097062 0.08151944
0003d0 8a 0d fc bd 75 96 f1 3d 3c f7 90 bd 11 a4 b9 bd
       -0.1230727 0.117962755 -0.07078406 -0.09064496
0003e0 dd f5 0b bd e0 6c b7 3d e5 e9 57 3c 93 28 04 be
       -0.03417002 0.08956313 0.013178323 -0.12906103
0003f0 4d 98 f4 bd ca f9 24 bd 7f 40 5c be 38 ef 7c bd
       -0.119431116 -0.04027728 -0.21508978 -0.061751574

fc3.bias f4 [4]
000000 ef d1 e4 3d 57 67 27 3c df 76 8e bd 0a 69 9d 3e
       0.11172854 0.010217509 -0.069562666 0.307442
