other/pump_frequency_model.onnx (onnx, 20163 bytes, 5 tensors)

fc1.weight f4 [64, 9]
0.0947586 -0.19122733 0.22796537 -0.08066895 0.21116531 -0.010020796 -0.09883061 0.26002347
0.16270642 -0.035865452 -0.39930102 0.3835761 -0.056936994 0.15283464 -0.25334805 0.027847107
-0.06626238 0.042578343 -0.16965696 0.062114812 -0.20131776 0.23661584 0.155924 -0.18652521
0.3024963 -0.27792588 0.22500394 -0.032741893 -0.28473052 -0.06126243 0.11402708 -0.22586179
0.10289054 0.2911949 0.1812012 -0.268388 0.30967727 -0.16457582 -0.27144465 -0.0027174533
-0.11214076 0.1730962 -0.0040745325 -0.119256705 0.3079029 0.22049406 0.32990453 -0.25258863
-0.0073155463 -0.2367382 -0.30760393 0.19837245 0.04314825 -0.28088018 -0.037068065 0.1804852
-0.15076216 0.26641896 -0.121641085 0.05299197 -0.8250904 -0.09719266 0.103689045 0.0948455
-0.20359163 0.039447993 -0.3311654 -0.21665883 -0.33035368 0.2623038 0.19824669 0.14874539
-0.23991093 -0.17798197 -0.26263028 -0.20885055 -0.2007827 -0.31239483 0.09300193 0.32988945
0.27867725 0.16243753 0.111193694 -0.25517127 -0.18440391 -0.2675644 0.11849404 0.32682338
-0.076885626 0.20963481 -0.1443669 0.13996038 -0.12739977 -0.18684396 -0.13600385 -0.28525227
-0.015194774 0.020366311 0.24122944 -0.11602962 0.29031852 -0.23023872 0.26272425 0.0672338
-0.09528224 -0.30656737 0.0054446757 0.024851918 0.17080453 -0.083381414 0.14064929 -0.31382704
-0.19116764 -0.29574677 0.15799212 -0.045504957 0.0032732785 0.030150965 0.04185691 -0.31491038
-0.19588965 0.1253339 -0.27825233 0.16601703 0.012548112 -0.24148619 0.01605936 0.33856001
-0.0650081 -0.0019393773 -0.18784785 0.30220237 -0.057180762 -0.10956813 0.2234029 -0.09581774
-0.28081968 0.14638782 0.24065933 -0.25486216 0.07265222 -0.008978338 0.095370285 -0.092066295
-0.072237134 -0.060564604 0.28919426 0.018834159 -0.024883084 0.010377407 0.33941707 -0.07411601
0.015977396 0.26990387 0.29181835 -0.16764571 -0.063747086 0.25393936 0.23647116 0.24310505
0.23867793 -0.27056754 0.016896248 0.24083701 0.14091313 0.21769282 -0.320961 -0.3268218
-0.16543464 -0.15429804 -0.03457108 0.15787022 0.09878698 -0.20283775 0.09793267 0.10575448
0.011478679 -0.06641769 0.2415769 -0.14115834 -0.22043988 -0.18547511 0.21283737 0.13497142
0.2502818 0.050542206 -0.20990224 -0.05595824 -0.015624688 0.12895417 0.2892256 -0.17380151
0.24139783 0.1797792 -0.3191412 -0.2910968 -0.306481 -0.13814068 -0.1416106 0.14543694
-0.15404616 -0.029945266 -0.064262666 0.12266165 0.13439871 -0.22935164 -0.107967466 -0.24168274
0.18949288 -0.18581478 -0.074192695 0.25705332 -0.07599496 0.27772385 -0.26870504 -0.17051384
-0.13331656 0.02975753 0.2198421 0.1020799 -0.20530045 -0.22946636 -0.1504831 0.25591442
0.24388257 0.27473918 -0.1995022 -0.26111206 -0.105204195 -0.25602037 -0.19388203 -0.037343144
-0.2914644 0.21703193 0.042378977 0.10563612 -0.1403981 -0.21291214 -0.07135281 0.004602761
-0.2978581 -0.13110667 -0.18241043 0.028535798 0.15419517 -0.12609227 0.22907756 0.2683229
0.16909508 0.013708689 0.08595272 0.0712162 0.0861665 0.0160985 0.24559489 -0.024476647
00000000: cc10 c23d 19d1 43be c16f 693e c335 a5bd
00000010: b83b 583e 442e 24bc b467 cabd cc21 853e
00000020: 839c 263e a7e7 12bd 2f71 ccbe 1664 c43e
00000030: c436 69bd af80 1c3e d6b6 81be 9e1f e43c
00000040: 92b4 87bd a166 2e3d 8eba 2dbe 1a6c 7e3d
00000050: 3e26 4ebe 6c4b 723e 8baa 1f3e 7700 3fbe
00000060: cce0 9a3e 4d4c 8ebe 6f67 663e 5d1c 06bd
00000070: 33c8 91be 50ee 7abd 0887 e93d 5048 67be
00000080: 47b8 d23d 7f17 953e cf8c 393e 276a 89be
00000090: 058e 9e3e 9086 28be cbfa 8abe 4d17 32bb
000000a0: 0eaa e5bd 2140 313e a883 85bb dc3c f4bd
000000b0: 73a5 9d3e 32c9 613e 3fe9 a83e 4c53 81be
000000c0: 40b7 efbb 806b 72be 437e 9dbe 2622 4b3e
000000d0: 38bc 303d 87cf 8fbe afd4 17bd 1dd1 383e
000000e0: 6561 1abe 1168 883e f61e f9bd 1c0e 593d
000000f0: 2039 53bf f20c c7bd ec5a d43d 5c3e c23d
00000100: 537a 50be 3894 213d 838e a9be d0db 5dbe
00000110: 1e24 a9be af4c 863e 2e01 4b3e b650 183e
00000120: 36ab 75be e840 36be 7a77 86be ebdc 55be
00000130: fb99 4dbe 37f2 9fbe cc77 be3d 45e7 a83e
00000140: c9ae 8e3e 0656 263e 85b9 e33d cfa5 82be
00000150: 61d4 3cbe 33fe 88be 01ad f23d 6555 a73e
00000160: 3676 9dbd 82aa 563e ebd4 13be c651 0f3e
00000170: 1675 02be 0654 3fbe 9844 0bbe 960c 92be
00000180: 80f3 78bc 40d7 a63c da04 773e f0a0 edbd
00000190: a1a4 943e b3c3 6bbe cb83 863e e0b1 893d
000001a0: 5623 c3bd 66f6 9cbe 4069 b23b 4096 cb3c
000001b0: 62e7 2e3e e0c3 aabd 5e06 103e f0ad a0be
000001c0: 73c1 43be 1f6c 97be b0c8 213e 6863 3abd
000001d0: 8084 563b 28ff f63c 2772 2b3d ef3b a1be
000001e0: 4c97 48be 8857 003e 1777 8ebe 5e00 2a3e
000001f0: 9996 4d3c 2848 77be eb8e 833c bd57 ad3e
00000200: f722 85bd b432 feba 305b 40be 45ba 9a3e
00000210: 6036 6abd 4165 e0bd bbc3 643e 173c c4bd
00000220: 99c7 8fbe b0e6 153e 666f 763e 4b7d 82be
00000230: b0ca 943d e119 13bc 7f51 c33d 418d bcbd
00000240: 10f1 93bd 9712 78bd 4511 943e 184a 9a3c
00000250: 9cd7 cbbc 0006 2a3c 13c8 ad3e 22ca 97bd
00000260: 07e3 823c d730 8a3e 3769 953e 51ab 2bbe
00000270: d58d 82bd 5704 823e 7f25 723e 88f0 783e
00000280: fd67 743e d487 8abe 006a 8a3c fa9d 763e
00000290: 884b 103e deea 5e3e 0055 a4be 3055 a7be
000002a0: b367 29be 4e00 1ebe 689a 0dbd bba8 213e
000002b0: d450 ca3d b3b4 4fbe ec90 c83d ce95 d83d
000002c0: 1211 3c3c ff05 88bd ef5f 773e d08b 10be
000002d0: feba 61be 30ed 3dbe 0af2 593e f335 0a3e
000002e0: f024 803e 5805 4f3d 9df0 56be 7834 65bd
000002f0: b1fe 7fbc 900c 043e 6115 943e 06f9 31be
00000300: fe30 773e 0a18 383e 7a66 a3be a40a 95be
00000310: 14eb 9cbe c074 0dbe 5e02 11be 6ced 143e
00000320: 47be 1dbe c64f f5bc 259c 83bd 0836 fb3d
00000330: d19f 093e 28db 6abe 0c1e ddbd ae7b 77be
00000340: 6c0a 423e 3b46 3ebe 57f2 97bd 7e9c 833e
00000350: 3fa3 9bbd d231 8e3e b593 89be 2e9b 2ebe
00000360: 2384 08be 10c6 f33c 4a1e 613e 440f d13d
00000370: 483a 52be 3bf9 6abe 3e18 1abe 3707 833e
00000380: 5abc 793e 9daa 8c3e 4e4a 4cbe 7bb0 85be
00000390: 4c75 d7bd 1a15 83be 0389 46be 20f5 18bd
000003a0: d23a 95be 9e3d 5e3e 9495 2d3d c057 d83d
000003b0: 85c4 0fbe a405 5abe 6c21 92bd c2d2 963b
000003c0: db80 98be d440 06be cdc9 3abe e8c3 e93c
000003d0: 57e5 1d3e 551e 01be 4f93 6a3e 9f61 893e
000003e0: 4327 2d3e 699a 603c fb07 b03d cdd9 913d
000003f0: 1078 b03d 00e1 833c 3a7d 7b3e 4083 c8bc

fc1.bias f4 [64]
-0.16916597 -0.20220421 0.31818122 0.002573086 0.0036322998 0.07041153 0.07467124 0.09339741
0.29275718 -0.003987301 0.269146 -0.13374615 -0.19301355 -0.081116825 0.17294969 0.2740535
-0.102022655 0.31496674 0.28821114 -0.2575211 -0.120809466 -0.020829797 0.170203 -0.14003916
0.30056903 0.10188472 -0.3111676 -0.1371757 0.184306 -0.021945424 0.04076389 0.31787035
0.16214094 -0.08480209 0.27748004 -0.09354612 0.35612628 -0.2696306 -0.010948765 -0.3377919
0.0018033304 -0.036028255 -0.30345687 -0.012086448 -0.18259421 0.2872704 -0.2535485 -0.233611
0.19044687 -0.31228027 -0.31635487 0.11321181 0.17082098 0.09287552 -0.29795942 -0.018795133
0.1453641 0.008426428 0.1282124 -0.28373048 -0.061927825 0.2716803 -0.33042157 0.10844174
00000000: d839 2dbe 9f0e 4fbe a6e8 a23e 38a1 283b
00000010: e10b 6e3b ec33 903d 3ced 983d 2447 bf3d
00000020: 45e4 953e e8a7 82bb 81cd 893e c0f4 08be
00000030: 58a5 45be 9420 a6bd b919 313e be50 8c3e
00000040: 41f1 d0bd 5243 a13e 6990 933e ced9 83be
00000050: f46a f7bd 40a3 aabc b249 2e3e 6d66 0fbe
00000060: 2fe4 993e f0a8 d03d 5c51 9fbe c977 0cbe
00000070: b6ba 3c3e e4c6 b3bc 09f8 263d e7bf a23e
00000080: 4608 263e b8ac adbd dd11 8e3e 1c95 bfbd
00000090: 2f56 b63e 060d 8abe 7362 33bc 0ff3 acbe
000000a0: ba5d ec3a 5d92 13bd b35e 9bbe 3d06 46bc
000000b0: faf9 3abe 1b15 933e 1cd1 81be b937 6fbe
000000c0: 8104 433e 33e3 9fbe 44f9 a1be 98db e73d
000000d0: b2eb 2e3e 8535 be3d 238e 98be 40f8 99bc
000000e0: 54da 143e 000f 0a3c 1d4a 033e 1f45 91be
000000f0: 08a8 7dbd ae19 8b3e 042d a9be b416 de3d

fc2.weight f4 [64, 64]
0.060127564 0.057118114 -0.03109691 -0.030883642 0.09663041 0.10830253 0.059541542 -0.08003497
0.06154248 0.11001915 -0.051044762 0.09085104 -0.02605185 -0.072891414 0.09497226 0.05247445
0.041062865 0.123455 -0.024842411 -0.0010948319 -0.09101439 -0.032368153 0.0018173101 0.043619238
0.08406001 0.09074889 0.04182694 -0.10446902 -0.0786356 0.0040314756 0.007820113 0.014452264
-0.04658547 0.027730305 -0.0028057396 -0.05536543 0.10144756 -0.040768027 -0.10024873 -0.0921031
0.04357976 -0.008947658 0.04153315 -0.034595937 -0.06401933 -0.12628485 0.03523933 0.14107238
0.03403193 0.07776968 0.038391083 0.036476344 0.11736251 0.12902625 -0.025266897 0.11717713
0.087418616 0.10997173 0.0060139084 0.0015494823 -0.008089468 -0.060556952 0.086618 -0.07884775
0.07701002 0.04464647 0.11504111 -0.07216036 0.017265916 -0.116812855 0.107823566 0.11541888
-0.023477003 -0.011988193 -0.018329918 0.0049179792 0.08729187 -0.029469967 0.08185434 0.046686754
0.015109509 0.036806628 -0.04893601 0.111639366 0.016110152 -0.098673716 -0.03926736 -0.10256907
-0.06313643 0.007502392 0.045139953 -0.08502528 0.05188963 -0.08167648 -0.09511596 -0.07623705
0.06732762 -0.1057124 0.09581943 -0.10316406 -0.06928675 0.019474834 -0.028659582 0.084636375
-0.09856902 -0.05975391 0.019746408 -0.04579389 -0.028629452 -0.0033137202 0.048599914 -0.031251058
0.06353027 -0.085062504 -0.04519984 0.050979048 0.05406621 -0.02282001 0.03224556 -0.055620596
-0.06813966 -0.07202168 -0.12387039 -0.007703185 0.073234186 -0.062480852 0.06864089 0.076005325
0.10619396 -0.11530497 0.012115036 0.043146875 0.024949426 0.018769547 -0.14598049 -0.0883439
-0.0728773 0.07093813 0.04350066 -0.016285121 0.10329351 -0.100796044 0.10376314 -0.11162567
-0.1454278 -0.035979096 0.012430504 0.12136916 0.07968031 -0.04944104 -0.122548535 0.025999563
-0.118389726 -0.027301908 -0.11504586 0.036387637 0.04793389 0.053633865 -0.11138388 0.08734007
0.023733363 -0.16351718 -0.07405928 -0.042237744 0.093003 0.07908535 -0.02968592 0.041800223
0.07001142 0.12706655 -0.11040008 0.023416659 0.13366434 0.14171764 -0.05004986 -0.03253696
-0.08045408 -0.05551406 0.08925496 0.058497384 0.013647969 -0.1023535 -0.084637955 0.09105927
-0.122944415 -0.103582755 0.10482572 0.044639617 -0.028826445 -0.06782376 -0.041843027 0.028677255
0.07971503 -0.041189358 -0.07317499 -0.049596466 0.10642324 -0.013118982 0.011928178 -0.031657726
-0.110209465 0.13530022 -0.0043431222 0.0843844 0.0378647 -0.06715452 0.10987617 -0.027896209
-0.0426091 -0.025146639 -0.031834856 -0.0621671 0.11795094 0.06488164 0.023774501 0.09273335
0.039028615 -0.03857377 -0.071259595 0.10883333 0.060643286 -0.06098848 -0.09913426 -0.07762891
0.11674419 0.043372054 -0.09699769 -0.053705886 -0.036154125 -0.00040564995 0.12934266 -0.02228903
0.13372593 -0.06759859 0.059089314 -0.0051195547 0.054348208 -0.11375754 -0.04024117 -0.06723799
0.09059004 -0.006000412 0.10625842 0.10233773 0.115321964 0.08853536 0.03338893 0.057652384
-0.010384503 0.05299504 0.097159125 0.09020552 0.0071983784 0.119102426 -0.02065641 0.031113297
00000000: 5248 763d aff4 693d f2be febc b1ff fcbc
00000010: 2ae6 c53d b8cd dd3d d5e1 733d 60e9 a3bd
00000020: f813 7c3d b851 e13d 5014 51bd 1c10 ba3d
00000030: b06a d5bc 1848 95bd d180 c23d 73ef 563d
00000040: 8931 283d fad5 fc3d 5082 cbbc 7680 8fba
00000050: c165 babd 7894 04bd cf32 ee3a 16aa 323d
00000060: a827 ac3d 8eda b93d ba52 2b3d dbf3 d5bd
00000070: b40b a1bd 781a 843b ee1f 003c 30c9 6c3c
00000080: 68d0 3ebd aa2a e33c 80e0 37bb dcc6 62bd
00000090: bdc3 cf3d 60fc 26bd 354f cdbd 8da0 bcbd
000000a0: b180 323d 3399 12bc aa1e 2a3d 78b4 0dbd
000000b0: 911c 83bd d150 01be 1e57 103d 4775 103e
000000c0: 1165 0b3d b645 9f3d f83f 1d3d 3868 153d
000000d0: c15b f03d 751f 043e 86fc cebc 90fa ef3d
000000e0: 8808 b33d dc38 e13d 5210 c53b 0018 cb3a
000000f0: b089 04bc 910a 78bd c764 b13d ee7a a1bd
00000100: 6eb7 9d3d 38df 363d ac9a eb3d d0c8 93bd
00000110: 4071 8d3c 943b efbd 9ad2 dc3d bc60 ec3d
00000120: d852 c0bc 206a 44bc a028 96bc 0027 a13b
00000130: 14c6 b23d 006b f1bc 40a3 a73d 9c3a 3f3d
00000140: e08d 773c 8cc2 163d 2071 48bd 2ea3 e43d
00000150: 70f9 833c 7215 cabd d0d6 20bd bc0f d2bd
00000160: ac4d 81bd a0d6 f53b ace4 383d bc21 aebd
00000170: 388a 543d 0046 a7bd 28cc c2bd 2c22 9cbd
00000180: 10e3 893d be7f d8bd fa3c c43d ae47 d3bd
00000190: 36e6 8dbd b089 9f3c 80c7 eabc d655 ad3d
000001a0: 8ede c9bd 84c0 74bd 38c3 a13c 6092 3bbd
000001b0: 5088 eabc 002b 59bb b410 473d 1c01 00bd
000001c0: 281c 823d 4035 aebd 7823 39bd 68cf 503d
000001d0: 8874 5d3d 08f1 babc ec13 043d 6cd2 63bd
000001e0: ce8c 8bbd 1a80 93bd c2af fdbd 006b fcbb
000001f0: cefb 953d eceb 7fbd 9893 8c3d aea8 9b3d
00000200: 387c d93d 0325 ecbd 257e 463c c7ba 303d
00000210: bd62 cc3c 98c2 993c e97b 15be a6ed b4bd
00000220: b240 95bd 0348 913d c02d 323d 6068 85bc
00000230: 8c8b d33d 286e cebd c581 d43d 009c e4bd
00000240: 06eb 14be d15e 13bd 50a9 4b3c 6590 f83d
00000250: 6e2f a33d b082 4abd bafa fabd 09fd d43c
00000260: 5076 f2bd 40a8 dfbc 2a9d ebbd 340b 153d
00000270: 5456 443d 2faf 5b3d 3b1d e4bd 5adf b23d
00000280: 786c c23c 0c71 27be 64ac 97bd 7c01 2dbd
00000290: 5b78 be3d 80f7 a13d e32f f3bc b636 2b3d
000002a0: 2662 8f3d bc1d 023e 7019 e2bd 4bd4 bf3c
000002b0: 4edf 083e 6e1e 113e 1501 4dbd 7a45 05bd
000002c0: 1cc5 a4bd b662 63bd 4ecb b63d f49a 6f3d
000002d0: bb9b 5f3c b69e d1bd aa56 adbd 487d ba3d
000002e0: 48ca fbbd 3223 d4bd deae d63d 08d8 363d
000002f0: 7025 ecbc 2fe7 8abd 9863 2bbd 90ec ea3c
00000300: a241 a33d 2cb6 28bd c5dc 95bd aa25 4bbd
00000310: 6df4 d93d 00f1 56bc 686e 433c 88ab 01bd
00000320: 80b5 e1bd 248c 0a3e c050 8ebb bad1 ac3d
00000330: 0418 1b3d 4f88 89bd c206 e13d 9786 e4bc
00000340: e186 2ebd 5300 cebc 4465 02bd eea2 7ebd
00000350: 4390 f13d aae0 843d bec2 c23c fcea bd3d
00000360: 78dc 1f3d 88ff 1dbd 8df0 91bd 02e4 de3d
00000370: 1865 783d 0ecf 79bd e706 cbbd e8fb 9ebd
00000380: 9417 ef3d e5a6 313d baa6 c6bd b4fa 5bbd
00000390: 5916 14bd 6aad d4b9 6772 043e 7c97 b6bc
000003a0: 73ef 083e 2171 8abd a307 723d f0c1 a7bb
000003b0: 3a9c 5e3d b7f9 e8bd edd3 24bd 12b4 89bd
000003c0: 4587 b93d 1b9f c4bb 049e d93d 7296 d13d
000003d0: ec2d ec3d 0752 b53d d5c2 083d e824 6c3d
000003e0: c323 2abc 5411 593d 5dfb c63d acbd b83d
000003f0: 60e0 eb3b f9eb f33d a237 a9bc 50e1 fe3c

fc2.bias f4 [64]
0.028563287 -0.0026977807 -0.064168625 0.046355687 0.029223382 -0.03828851 -0.12117735 -0.0865517
0.03760357 0.11259639 -0.055734366 0.1263374 0.06319946 -0.010906226 0.08769004 0.029715843
-0.101990014 -0.10484779 -0.082978785 -0.07946703 0.11683995 -0.09027638 -0.0046640486 -0.031303998
0.03532871 -0.061755482 0.10840532 0.037485003 0.016017042 0.09908101 0.05416155 0.10159308
0.0031656246 -0.048482597 0.13089365 0.1103165 0.110460676 0.055338025 0.11565362 -0.08636928
0.09859981 -0.03817528 -0.11372132 -0.05262111 0.017147377 -0.111063816 -0.041954342 -0.101073146
0.11576322 0.07905735 0.062034823 0.0785942 -0.0849997 -0.060179725 -0.0030962378 -0.011012907
-0.08034679 0.029690374 -0.11413556 0.029516265 -0.097739354 0.029505998 -0.11879436 0.09761261
00000000: 8efd e93c 40cd 30bb d76a 83bd 76df 3d3d
00000010: e065 ef3c 6ad4 1cbd d52b f8bd 0542 b1bd
00000020: 3306 1a3d f098 e63d b849 64bd 975e 013e
00000030: b86e 813d 07b0 32bc d696 b33d a46e f33c
00000040: 24e0 d0bd 70ba d6bd c8f0 a9bd 9cbf a2bd
00000050: c949 ef3d d3e2 b8bd e0d4 98bb 9f38 00bd
00000060: d6b4 103d 51f3 7cbd 9c03 de3d e089 193d
00000070: 2c36 833c fcea ca3d 80d8 5d3d 0810 d03d
00000080: 5e76 4f3b b095 46bd fc08 063e 9eed e13d
00000090: 3539 e23d 20aa 623d cedb ec3d 61e2 b0bd
000000a0: b2ee c93d af5d 1cbd b9e6 e8bd 3c89 57bd
000000b0: a878 8c3c 6d75 e3bd 51d8 2bbd 70ff cebd
000000c0: 4415 ed3d d2e8 a13d 3a18 7e3d fff5 a03d
000000d0: 5314 aebd 047f 76bd 40ea 4abb 7b6f 34bc
000000e0: dc8c a4bd 3a39 f33c e8bf e9bd 18cc f13c
000000f0: 922b c8bd 90b6 f13c 754a f3bd 1fe9 c73d

fc3.weight f4 [1, 64]
0.031852905 -0.056539908 -0.13509083 0.00879514 0.1151097 0.07238057 -0.059985295 0.03187758
0.023823364 -0.04402226 -0.107281506 0.065070085 0.009525015 0.071409464 0.084975734 -0.06423285
-0.057422087 0.040280435 0.1196201 -0.00765495 0.13451569 0.11086822 0.042858124 0.12703077
-0.013363889 0.13329002 0.0054269284 -0.008061528 -0.07165281 0.11922987 0.029992409 0.023114221
-0.0124487765 -0.09078211 -0.13370734 -0.111884885 0.014480726 -0.045755517 -0.00970149 -0.062659025
-0.030851789 0.11917934 -0.123665884 -0.11387431 -0.06033413 -0.04642626 0.087639205 0.048277136
-0.04995055 0.2034104 0.12005035 -0.07764068 -0.10954312 0.050204903 -0.03088279 0.11195408
0.0123161385 0.009842711 0.050950285 0.07602097 -0.009593352 -0.09329751 -0.07121549 0.082605146
00000000: 3178 023d 6496 67bd 4055 0abe 7e19 103c
00000010: a2be eb3d 443c 943d 24b3 75bd 1192 023d
00000020: 3729 c33c af50 34bd 68b6 dbbd 7743 853d
00000030: cf0e 1c3c 203f 923d c207 ae3d 838c 83bd
00000040: 6c33 6bbd 19fd 243d 62fb f43d 60d6 fabb
00000050: 7bbe 093e e10e e33d 008c 2f3d 5b14 023e
00000060: 37f4 5abc 2e7d 083e 60d4 b13b 8014 04bc
00000070: b5be 92bd ca2e f43d a4b2 f53c 095a bd3c
00000080: f4f5 4bbc f9eb b9bd 94ea 08be e723 e5bd
00000090: 9140 6d3c 236a 3bbd 00f3 1ebc 6053 80bd
000000a0: e4bc fcbc 4c14 f43d 8a44 fdbd ef36 e9bd
000000b0: ec20 77bd 7629 3ebd 2f7c b33d 3fbe 453d
000000c0: f398 4cbd d14a 503e f5dc f53d 1402 9fbd
000000d0: 2558 e0bd a8a3 4d3d e8fd fcbc 2e48 e53d
000000e0: a1c9 493c 5243 213c 3fb1 503d e2b0 9b3d
000000f0: 6f2d 1dbc c412 bfbd 6dd9 91bd e32c a93d
