pump_freq.pt (torch, 24412 bytes, 6 tensors)

fc1.weight f4 [64, 15]
0	0xbe7513cc	-0.23933333
1	0x3e43d315	0.1912349
2	0x3cb295a1	0.021799864
3	0x3eeaa847	0.4583151
4	0x3d74a5b3	0.059728336
5	0xbe932756	-0.28740948
6	0x3ed30ff7	0.41223118
7	0xbe2a2564	-0.16615826
8	0x3de716b4	0.11283627
9	0xbcbfb40e	-0.023401286
10	0xbd2b4689	-0.041815314
11	0x3ed38e7d	0.41319647
12	0xc00c979b	-2.1967533
13	0xbfcd47e1	-1.6037561
14	0x3e90c0da	0.28272134
15	0xbccd3093	-0.025047576
16	0xbe54c188	-0.20776951
17	0xbd398f35	-0.04530259
18	0x3f47fa06	0.7811588
19	0x3c4897c7	0.012243218
20	0xbd69a4b4	-0.05704184
21	0xbd8b6142	-0.0680566
22	0xbe50ab3b	-0.20377819
23	0xbc3717c4	-0.0111751
24	0xbdf49e8e	-0.119443044
25	0x3f01b37a	0.50664485
26	0x3ee2ced1	0.44298413
27	0x3e8b0790	0.27154207
28	0x3e41f3fc	0.18940729
29	0x3dbbdc16	0.091728374
30	0x3d4e31ad	0.050340343
31	0xbf025a75	-0.50919276
32	0x3d38af94	0.04508932
33	0xbe1a9fee	-0.15100071
34	0xbeabfe7b	-0.3359259
35	0xbecc02da	-0.39845926
36	0xbee25f6a	-0.4421342
37	0x3dac3336	0.08408205
38	0xbebef5f5	-0.37297025
39	0xbe838c90	-0.25693178
40	0xbf1df094	-0.6169522
41	0x3ec95f2c	0.39330423
42	0x3f35af44	0.7097056
43	0x3e818f38	0.2530458
44	0xbe0186a2	-0.12649015
45	0xbe0c803c	-0.13720793
46	0xbd0dbe1c	-0.03460513
47	0xbd752570	-0.059850156
48	0xbe156e79	-0.14592923
49	0xbe170ca8	-0.14750922
50	0x3e449d2e	0.19200584
51	0xbdd33e94	-0.1031467
52	0x3e2d4642	0.16921332
53	0xbdb20d7a	-0.08693977
54	0xbe594e25	-0.21221216
55	0x3e5ae6ca	0.21377102
56	0xbe2b0524	-0.1670118
57	0x3db27f48	0.08715683
58	0x3c2d82a0	0.010590225
59	0x3de4a470	0.111641765
60	0xbe4e860e	-0.20168325
61	0x3d23e228	0.0400106
62	0xbdc35f1c	-0.09539625
63	0x4014ba1d	2.3238595
64	0xbece4b0d	-0.40291634
65	0x3df7b66b	0.1209534
66	0xbf2187d0	-0.6309786
67	0x3d9a55bb	0.07535883
68	0xbcd8e6f1	-0.026477309
69	0x3df2cb13	0.118551396
70	0x3fa757dc	1.3073688
71	0xbf1a0261	-0.6015988
72	0x3f14bacc	0.5809753
73	0x3ea55e1c	0.32298362
74	0xbf44c038	-0.768558
75	0xbe3b97d2	-0.18319634
76	0x3e6e90e8	0.23297465
77	0xbe689af1	-0.22715355
78	0x3e38a38c	0.18031138
79	0x3e453a58	0.19260538
80	0xbe5baeb8	-0.21453369
81	0xbd2c7ae0	-0.04210937
82	0xbd44acc8	-0.04801634
83	0xbe3ca9e9	-0.1842419
84	0x3e26d3fc	0.16291803
85	0x3e5d3da4	0.21605545
86	0xbd9fdd96	-0.07805936
87	0xbe1e7ae4	-0.15476567
88	0xbe6c2799	-0.2306198
89	0xbe4be25f	-0.19910572
90	0x3daec894	0.08534351
91	0xbdb80c64	-0.08986738
92	0xbd2f2960	-0.042764068
93	0x3e108ade	0.14115474
94	0xbc347da0	-0.011016279
95	0xbe67f63c	-0.22652525
96	0x3ce4c730	0.027927011
97	0xbdb14f62	-0.08657719
98	0xbe4d4a56	-0.20047888
99	0xbd7688d0	-0.06018907
100	0x3e7d3676	0.24727806
101	0x3e51851e	0.20460936
102	0xbcb23fb0	-0.021758884
103	0x3e35d062	0.17755273
104	0xbe779e4e	-0.24181482
105	0xbe78224f	-0.24231838
106	0x3f1b7463	0.6072447
107	0x3d70a5f6	0.058752023
108	0xbecd0765	-0.40044704
109	0xbcfaa262	-0.030595008
110	0xbdd51244	-0.104038745
111	0xbebb0bdc	-0.36532485
112	0x3d006ea5	0.03135552
113	0xbea4fe11	-0.32225087
114	0xbea8d0c4	-0.32971776
115	0x3f0ce516	0.5503706
116	0x3f1ac5aa	0.6045786
117	0x3f689e6d	0.9086674
118	0xbfc90346	-1.5704124
119	0xbe86f779	-0.26360682
120	0xbf109cf5	-0.564895
121	0x3f1de172	0.6167213
122	0x3b83b4fd	0.004019378
123	0xbfa7d36d	-1.3111397
124	0x3e8f2e13	0.2796484
125	0x3e44fb67	0.19236527
126	0x3f98b674	1.193068
127	0xbc9430df	-0.01808971
128	0x3e12440c	0.1428377
129	0xbe428a6d	-0.18998118
130	0xbf219af2	-0.6312705
131	0x3fa9a547	1.3253564
132	0xbfcd65cc	-1.6046691
133	0xbe3d8dba	-0.18511096
134	0xbf9cb2f6	-1.2242115
135	0x3e8663fa	0.2624815
136	0x3ccb2483	0.024797684
137	0xbd025da4	-0.031827584
138	0x3e543580	0.20723534
139	0xbee4489c	-0.44586647
140	0xbef15202	-0.4713288
141	0xbf440234	-0.7656586
142	0xbd101f9f	-0.035186406
143	0x3ddaab29	0.106771775
144	0xbde1b909	-0.11021621
145	0x3f91462f	1.1349543
146	0xbf927cf9	-1.1444389
147	0x3dc06a66	0.09395294
148	0x3f04862e	0.5176724
149	0xbdd7a2d7	-0.10529106
150	0xbf0b2c29	-0.5436426
151	0xbf34cfca	-0.7062956
152	0x3d93a0c4	0.07208398
153	0xbe8f3ba7	-0.279752
154	0x3dcc0f02	0.099638
155	0xbeaf27e1	-0.34210113
156	0xbfa0224f	-1.251047
157	0x3dbdc8b2	0.09266795
158	0x3dccfd36	0.10009234
159	0x3cd9bfe5	0.02658076
160	0xbf9987de	-1.1994588
161	0x3d91c839	0.071182676
162	0x3de87487	0.11350351
163	0x3f3fac7c	0.74872565
164	0x3db47f7e	0.0881338
165	0x3f19c9dd	0.60073644
166	0x3de45bf8	0.11150354
167	0xbe2a68f2	-0.16641596
168	0x402d55f7	2.7083719
169	0x3cfaa7f6	0.030597668
170	0x3d069d85	0.032865066
171	0x3f4ad298	0.7922759
172	0xbd80da74	-0.062916666
173	0xbee7a245	-0.4524099
174	0xbd7f2177	-0.062287774
175	0x3e0db6b9	0.13839234
176	0xbfb592e6	-1.4185455
177	0x3e50b666	0.2038208
178	0xbda6b21b	-0.0813944
179	0xbf675747	-0.9036755
180	0x3e302d1e	0.17204711
181	0xbed3b71b	-0.41350636
182	0x3c32c1d7	0.010910473
183	0xbf20c342	-0.6279794
184	0x3d417035	0.04722615
185	0xbdd49068	-0.10379106
186	0x3e03568b	0.12825982
187	0xbd164a6e	-0.036692075
188	0xbe48b4b4	-0.19600183
189	0xbf00a0b2	-0.502452
190	0xbf9cca35	-1.2249209
191	0x3d3347a2	0.043769486
192	0x3f583007	0.84448284
193	0x3eec9c2f	0.4621291
194	0xbe2bc2b6	-0.16773495
195	0xbe67c0ec	-0.22632188
196	0x3d82b5cc	0.06382331
197	0x3ccd5f30	0.025069803
198	0xbd01dcf4	-0.031704858
199	0x3e0bf7da	0.13668767
200	0x3e60073e	0.21877763
201	0x3e0a5b7a	0.13511458
202	0xbe78a0d5	-0.24280103
203	0xbe36e13c	-0.17859358
204	0x3e26ede2	0.16301683
205	0x3e1c8112	0.15283611
206	0xbe766bd2	-0.24064568
207	0xbe3a4e04	-0.18193823
208	0xbe442cb4	-0.19157678
209	0x3dcdfa88	0.10057551
210	0xbd3f4c0d	-0.046703387
211	0x3dae3e8c	0.085080236
212	0x3cbcb76d	0.023036683
213	0xbedf0210	-0.4355626
214	0x3e3c10a7	0.18365727
215	0xbcea7f39	-0.028625118
216	0xbe865605	-0.26237503
217	0xbca2dcfc	-0.019880764
218	0x3decb92d	0.11558757
219	0x3d15332b	0.03642575
220	0x3e8867ea	0.2664178
221	0xbe86373f	-0.26214024
222	0xc0198f7c	-2.3993826
223	0x3f6cedcc	0.9255035
224	0xbec69ac1	-0.38789943
225	0xbe88e257	-0.26735184
226	0x3e80f5e1	0.2518759
227	0xbe05814b	-0.13037603
228	0x3e77062c	0.24123448
229	0xbc2d15f9	-0.010564321
230	0xbde0792f	-0.10960614
231	0xbc2787ba	-0.010225231
232	0xbd705f21	-0.058684472
233	0xbd8ef0f4	-0.06979552
234	0x3c96f6ae	0.018428173
235	0xbe56c306	-0.20972833
236	0x3e21e2a4	0.15809113
237	0x3e432365	0.1905647
238	0x3c70d240	0.014698565
239	0x3d7b2768	0.061316878
240	0x3e25c35d	0.16187806
241	0x3d7e25a8	0.06204763
242	0xbdb5a2c4	-0.08868936
243	0x3d10512a	0.035233654
244	0xbe3888e2	-0.18020967
245	0xbefdb019	-0.49548414
246	0xbf27b175	-0.6550515
247	0xba328756	-0.0006810328
248	0x3e436ec9	0.1908523
249	0x3e4b6884	0.19864088
250	0x3e173dff	0.14769743
251	0xbeb39723	-0.35076246
252	0x3ebc9dec	0.36839235
253	0x3f0e2fac	0.5554149
254	0xbfa9a014	-1.3251977
255	0x3d9df25b	0.07712241

fc1.bias f4 [64]
0	0xbe94ecfa	-0.2908705
1	0xbd9e49ae	-0.07728897
2	0x3e5f6318	0.21815145
3	0x3d286968	0.04111615
4	0x3e95c3c1	0.2925091
5	0xbd9796ae	-0.07401787
6	0x3d4918c8	0.0490959
7	0x3e4d7eaa	0.2006785
8	0x3f33eb43	0.70280856
9	0x3e3b8753	0.18313341
10	0xbd5545b6	-0.052068435
11	0x3d9e512c	0.07730326
12	0x3e8f0368	0.27932286
13	0x3d8d5c54	0.06902376
14	0xbe6ccd05	-0.23125084
15	0xbde0bd0c	-0.10973558
16	0x3e117877	0.1420611
17	0x3ec1770b	0.37786135
18	0xbc5ea7dc	-0.0135898255
19	0x3e6e78ab	0.23288219
20	0xbf18d39e	-0.596979
21	0x3e6a3418	0.22871435
22	0x3eb53717	0.35393593
23	0x3d4e89df	0.050424453
24	0x3eb856cc	0.3600372
25	0x3e152902	0.14566424
26	0x3e9d4598	0.30717158
27	0x3d940e9b	0.07229348
28	0xbf1e21ca	-0.6177031
29	0xbefbe82a	-0.49200565
30	0xbee5853c	-0.44828212
31	0x3d6b131f	0.057391282
32	0xbd1ae2a4	-0.037813798
33	0xbe50270b	-0.20327394
34	0xbec13863	-0.37738332
35	0x3d511197	0.051042166
36	0xbd6f2ad3	-0.05839045
37	0xbf5478e9	-0.82996994
38	0xbe4ea169	-0.2017876
39	0xbe5d16ff	-0.21590804
40	0xbe1887bb	-0.14895527
41	0x3d976f60	0.0739429
42	0xbd1d1265	-0.03834762
43	0x3e78a2c0	0.24280834
44	0xbeb9d258	-0.36293292
45	0xbedc1c09	-0.4299014
46	0x3de72144	0.11285642
47	0x3c8b8031	0.0170289
48	0xbcf9f010	-0.030509979
49	0x3d8bd16f	0.06827056
50	0x3ce9537c	0.028482191
51	0x3e49b67c	0.19698519
52	0xbe246016	-0.16052279
53	0x3e79e002	0.24401858
54	0x3f3c2b8a	0.73503935
55	0x3e079c06	0.13243112
56	0x3d396472	0.045261808
57	0xbed2ee2a	-0.4119733
58	0x3e16981d	0.14706464
59	0xbd998860	-0.074967146
60	0x3df477fd	0.119369484
61	0x3e2b1b45	0.16709621
62	0xba285ab3	-0.00064222066
63	0x3e4af7af	0.19821046

fc2.weight f4 [64, 64]
0	0x3f8ed939	1.1160041
1	0x3ce1b31c	0.027551226
2	0xbd50b2c4	-0.050951734
3	0x3c891798	0.016734883
4	0x3ebbc926	0.36676902
5	0x3def63f6	0.11688988
6	0x3d37f6ec	0.044913217
7	0xbd3d0cac	-0.046154663
8	0xbf318a53	-0.6935169
9	0xbdff9c43	-0.124809764
10	0x3e6607c4	0.224639
11	0x3e7aa105	0.24475487
12	0x3e3f0705	0.18655021
13	0xbbda2380	-0.006657064
14	0x3e931855	0.287295
15	0x3dced002	0.10098268
16	0x3e6ade85	0.22936447
17	0x3ede400a	0.43408233
18	0xbc05a010	-0.008155838
19	0x3e9219d2	0.28535324
20	0xbd95ec3b	-0.07320448
21	0x3cfeac73	0.03108809
22	0x3e01f852	0.12692383
23	0xbd744f13	-0.059645724
24	0x3dcd3970	0.10020721
25	0x3d4d1268	0.05006638
26	0xbe76d7ef	-0.2410581
27	0xbdfff79d	-0.124984
28	0x3d38517f	0.044999596
29	0xbdb6deaf	-0.08929192
30	0xbd84c787	-0.06483369
31	0xbde30fdc	-0.11087009
32	0x3de1e670	0.110302806
33	0x3d8b09f3	0.06789007
34	0xbe702402	-0.23451236
35	0x3b16634e	0.0022947374
36	0x3d9a1624	0.07523754
37	0xba83d48f	-0.0010057854
38	0xbf54aef4	-0.8307946
39	0xbdd711f8	-0.10501474
40	0xbd5b4365	-0.05353107
41	0xbdd66fe0	-0.10470557
42	0x3ee2deea	0.44310695
43	0x3eb39c39	0.35080126
44	0xbd3ad610	-0.045614302
45	0xbe7a7375	-0.24458106
46	0x3dc4b888	0.09605509
47	0xbd847218	-0.06467074
48	0x3cb30560	0.021853149
49	0xbe6e132b	-0.232495
50	0xbd05f7b7	-0.032706942
51	0xbd8b3796	-0.067977116
52	0xbeaf46dc	-0.3423375
53	0xbe72600c	-0.23669451
54	0xbe26ed11	-0.16301371
55	0xbb82ace0	-0.0039878935
56	0x3c72d516	0.014821311
57	0x3c316b36	0.010828784
58	0xbd6a9a21	-0.057275895
59	0x3d961ee6	0.07330112
60	0x3e076819	0.13223304
61	0xbd3a7e88	-0.045530826
62	0xbe40a562	-0.18813089
63	0x3e21c51c	0.15797848
64	0xbceb279a	-0.028705407
65	0x3dcd5e70	0.10027778
66	0xbe2c828b	-0.16846673
67	0xbdcc7a80	-0.099843025
68	0x3da300c8	0.079591334
69	0x3d3e1680	0.046408176
70	0xbd83cd54	-0.064356476
71	0xbe040c1e	-0.12895247
72	0xbcac5511	-0.021036657
73	0x3cd3b555	0.025843302
74	0xbe298541	-0.16554739
75	0xbd8ad78a	-0.06779392
76	0xbe0c7c31	-0.1371925
77	0xbccdaae0	-0.025105894
78	0x3dba6aa8	0.09102374
79	0xbd59a69c	-0.053137407
80	0xbd51a3b0	-0.051181495
81	0xbdf21dd8	-0.118220985
82	0xbdf1a2d4	-0.11798635
83	0xbd348975	-0.0440764
84	0xbd9ac91b	-0.07557889
85	0xbd9a74a4	-0.07541779
86	0x3cd5c923	0.026096886
87	0xbde34edd	-0.11099026
88	0xbe1ca22f	-0.15296243
89	0x3d971712	0.07377447
90	0xbc67f5a9	-0.014157691
91	0x3d3f8714	0.04675968
92	0x3db3b28a	0.08774288
93	0xbd4e03ff	-0.05029678
94	0xbc9b73e9	-0.018976169
95	0xbd6eb079	-0.058273766
96	0x3d84a1e0	0.06476188
97	0x3b5d9d9e	0.003381587
98	0x3bb68791	0.00557036
99	0xbdc37103	-0.0954304
100	0xbdc41d60	-0.09575915
101	0x3c9e5f3d	0.019332523
102	0x3c9aa900	0.018879414
103	0xbcedfda8	-0.029051617
104	0x3c1acb50	0.009447888
105	0x3d91d850	0.071213365
106	0x3d4d6948	0.050149232
107	0xbdc815a0	-0.0976975
108	0x3dde3223	0.108494066
109	0xbd9ef592	-0.077616826
110	0xbd49925c	-0.049211845
111	0xbd1ce5b0	-0.038304985
112	0x3db34854	0.0875403
113	0xb9c35a54	-0.00037260598
114	0x3c292a39	0.010325008
115	0x3dcd892c	0.10035929
116	0xbe2a41d2	-0.16626671
117	0x3db07532	0.08616103
118	0xbe3ff71a	-0.18746606
119	0x3da8400e	0.082153425
120	0xbe0daa58	-0.13834512
121	0x3d1bab6d	0.03800528
122	0xbb88cee8	-0.004175056
123	0x3d7af19c	0.061265573
124	0xbdf543aa	-0.119757965
125	0xbc203c17	-0.009779952
126	0x3bd752d6	0.006571154
127	0xbbcc6ffa	-0.0062389346
128	0xbe013f04	-0.12621695
129	0xbd696178	-0.05697772
130	0xbd10ec74	-0.03538175
131	0xbda88420	-0.08228326
132	0xbdc0ed09	-0.09420211
133	0xbc8eb720	-0.017421305
134	0xbcc2c908	-0.0237775
135	0xbd99c988	-0.07509142
136	0x3de0641a	0.10956593
137	0xbd686db6	-0.056745254
138	0xbd414e79	-0.047193978
139	0xbd0e908e	-0.034805827
140	0xbded4aa9	-0.11586506
141	0x3cd247e0	0.025669038
142	0x3d718575	0.058965165
143	0xbdf6b9a9	-0.120471306
144	0x3d826f79	0.06368918
145	0x3d97c81e	0.07411216
146	0xbcb9cade	-0.022679742
147	0xbab6d1cb	-0.0013948021
148	0xbc272243	-0.01020104
149	0xbd779ee7	-0.060454275
150	0xbde22b0e	-0.11043368
151	0xbde8cdac	-0.11367354
152	0x3d44ab64	0.048015013
153	0x3dd1b29e	0.10239147
154	0xbdef6bb6	-0.11690466
155	0xbe15ecf4	-0.14641172
156	0x3ddcf2fa	0.107885316
157	0x3d7f51f8	0.06233403
158	0xbd1a6724	-0.03769602
159	0x3d1c0ee4	0.03810014
160	0xbdb778ac	-0.08958563
161	0xbd716088	-0.05892995
162	0x3da4a067	0.08038407
163	0xbd640d69	-0.05567685
164	0x3d0c7ecd	0.034300614
165	0x3bbe5f60	0.0058097094
166	0xbd1014d5	-0.035176117
167	0xbd5a81b8	-0.053346366
168	0x3dae41ff	0.085086815
169	0x3d4317e4	0.047630206
170	0xbdbc6036	-0.09198038
171	0x3cbf15c9	0.023325818
172	0x3da9ee7f	0.08297443
173	0xbc8a6c7d	-0.016897434
174	0x3dbf4862	0.09339978
175	0xbd665a18	-0.056238264
176	0xbdcb57de	-0.09928869
177	0x3c97c678	0.018527254
178	0x3d117c10	0.035518706
179	0xbddf48ea	-0.10902579
180	0xbdfafca0	-0.12255216
181	0x3d9ace77	0.07558911
182	0xbdaeead1	-0.085408814
183	0x3df0490a	0.11732681
184	0xbdfc2e8e	-0.12313567
185	0xbd339a28	-0.043848187
186	0xbdb6b43e	-0.08921097
187	0x3dc585cc	0.0964466
188	0xbde4f44d	-0.11179409
189	0x3ddbadd6	0.10726516
190	0xbdb21ef5	-0.08697311
191	0xbccdf8c1	-0.02514303
192	0x3da88cc0	0.08229971
193	0x3d1c7192	0.038194247
194	0x3daa837d	0.08325861
195	0x3deb5712	0.11491217
196	0xbe66ab87	-0.2252637
197	0x3dd6f126	0.10495214
198	0x3d325644	0.0435393
199	0xbe018ed5	-0.12652142
200	0xbd818059	-0.063233085
201	0x3e96f043	0.2948018
202	0xbd1fa5a2	-0.03897632
203	0xbd3cf80d	-0.046134997
204	0x3e50d37e	0.20393178
205	0x3df3b47c	0.11899659
206	0xbf3bca87	-0.7335591
207	0x3def1a85	0.1167498
208	0xbe608452	-0.21925476
209	0xbf1ae8ce	-0.6051148
210	0x3d459ea5	0.048247
211	0xbed23e4f	-0.41063163
212	0xbe24f4dd	-0.16109033
213	0xbca9663f	-0.020678638
214	0xbda888ed	-0.082292415
215	0x3dcbf1c8	0.099582255
216	0x3c8a15fb	0.016856184
217	0x3cd00098	0.025390908
218	0x3d79c112	0.06097514
219	0xbe360293	-0.1777442
220	0xbe13e20c	-0.14441699
221	0xbe427c30	-0.18992686
222	0xbe1a3493	-0.15059118
223	0xbcf56984	-0.02995754
224	0x3d9ada5a	0.075611785
225	0xbef62ea5	-0.48082462
226	0xbd2aacd4	-0.041668728
227	0x3c4cdc43	0.012503686
228	0xbcbcdcba	-0.02305447
229	0xbf08da83	-0.5345842
230	0x3ed2b5a9	0.4115422
231	0x3daf772e	0.085676536
232	0xbbbd14f4	-0.00577032
233	0xbdc8c754	-0.09803644
234	0xbdae4874	-0.08509913
235	0x3c861ef3	0.01637218
236	0xbdfa2249	-0.122135706
237	0x3e362e54	0.1779111
238	0xbd88bd78	-0.06676763
239	0xbec02212	-0.37525994
240	0xbbfdacc0	-0.0077415407
241	0x3ee30e0f	0.44346663
242	0xbd8f2b82	-0.0699072
243	0x3cc8de18	0.024519965
244	0xbe798cb9	-0.24370088
245	0xbd634a05	-0.055490512
246	0xbd7e98bd	-0.06215738
247	0x3dfda2fe	0.12384604
248	0xbd60783a	-0.054802157
249	0x3ddbd4d4	0.10733953
250	0x3ecf4b4b	0.4048713
251	0x3db87668	0.09006959
252	0x3d8db44d	0.06919155
253	0x3d696fc8	0.05699137
254	0x3d62793d	0.055291403
255	0x3c06da8f	0.008230819

fc2.bias f4 [64]
0	0x3ea4fd07	0.32224295
1	0xbdfe914f	-0.12430059
2	0xbe072133	-0.13196258
3	0x3b1094c6	0.0022061332
4	0xbd1f2f21	-0.038863305
5	0xbda5b47e	-0.08091067
6	0xbcd4c1ac	-0.025971256
7	0xbddd4db5	-0.10805837
8	0xbcd76c6e	-0.02629682
9	0xbe94b1a3	-0.29041776
10	0x3d3428a6	0.043984078
11	0x3d8ba919	0.06819362
12	0x3eaf3999	0.3422363
13	0x3ddd42c1	0.10803748
14	0xbe30a476	-0.17250237
15	0xbdfc7ac8	-0.12328106
16	0xbdcda2f4	-0.100408465
17	0xbde1737f	-0.11008357
18	0x3ed7b76e	0.42132133
19	0xbe13ca6b	-0.14432685
20	0x3cfcb028	0.030845717
21	0xbd02bd3f	-0.03191876
22	0x3d8b4519	0.06800289
23	0xbe082c4e	-0.13298151
24	0x3efdf8fc	0.49604023
25	0x3db0f684	0.08640769
26	0x3cda24bd	0.026628846
27	0xbe021261	-0.12702323
28	0xbe00bfcb	-0.12573163
29	0x3e2dd211	0.16974665
30	0x3d188aee	0.03724187
31	0xbd8d997d	-0.06914041
32	0xbe8d191a	-0.27558213
33	0xbcb883f0	-0.02252385
34	0xbd9acd97	-0.075587444
35	0xbe48ad56	-0.19597372
36	0xbe0e2dba	-0.13884631
37	0x3d40aeba	0.047041632
38	0x3f03731a	0.51347506
39	0x3efe4ff6	0.4967038
40	0xbe76bc20	-0.24095201
41	0x3d825c00	0.06365204
42	0x3ebd4888	0.369694
43	0xbd815a53	-0.06316056
44	0x3e8d2c69	0.27572945
45	0x3ea13f8a	0.3149379
46	0xbe2ae420	-0.16688585
47	0xbbd9baf4	-0.006644601
48	0x3e7745d6	0.24147734
49	0x3e68fb55	0.22752126
50	0x3da5cd1e	0.080957636
51	0xbcdfbb0b	-0.027310869
52	0xbdd3f252	-0.10348953
53	0xbe194abc	-0.14969915
54	0x3ee5f486	0.4491312
55	0x3ea79ecf	0.3273835
56	0x3dc22063	0.094788335
57	0x3ca2e09a	0.019882489
58	0xbd5217b5	-0.05129214
59	0xbb221f01	-0.0024737718
60	0x3f3019ba	0.68789256
61	0xbe1a7c43	-0.15086465
62	0x3ea1e6d0	0.31621408
63	0xbb359051	-0.0027704427

fc3.weight f4 [4, 64]
0	0x3d8f7e46	0.070065066
1	0x3cf80dc9	0.03028001
2	0x3d07ed73	0.033185434
3	0x39e12de2	0.0004294953
4	0xbc566eec	-0.013087969
5	0x3d420134	0.04736443
6	0x3c66eb3b	0.014094169
7	0x3c7a6bda	0.015284503
8	0x3d1abcc2	0.03777767
9	0xbc8bdb2f	-0.017072288
10	0xbda45ed6	-0.08025901
11	0xbe1060ff	-0.14099501
12	0x3ce4ca46	0.027928483
13	0x3d12d13a	0.035844065
14	0x3ce5db53	0.028058683
15	0xbd783731	-0.06059951
16	0x3a18f88d	0.0005835377
17	0x3caaff14	0.020873584
18	0x3d9533dd	0.07285283
19	0xbdfb83ec	-0.122810215
20	0x3d4e72ce	0.050402455
21	0xbd7fe207	-0.062471416
22	0x3ced782a	0.028987963
23	0x3dd4fc92	0.103997365
24	0x3db72525	0.08942632
25	0xbc9b219c	-0.018936925
26	0x3c4d108b	0.012516151
27	0xbc27f7ce	-0.010251952
28	0x3cb95504	0.022623546
29	0x3c020642	0.007936062
30	0xbed5ea2c	-0.4178022
31	0x3d86c66b	0.06580814
32	0xbc8cf33c	-0.017205827
33	0xbcc941a3	-0.02456743
34	0xbdbfa50a	-0.093576506
35	0xbcc46ac4	-0.023976691
36	0xbd40817b	-0.046998482
37	0x3d10589e	0.035240762
38	0x3e167ee6	0.14696845
39	0x3bc38481	0.0059667234
40	0xbd1f37f6	-0.038871728
41	0x3bda3c2a	0.006660004
42	0x3cb51232	0.022103403
43	0xbc08970c	-0.008336794
44	0x3d9e42b7	0.077275686
45	0xb9fafe05	-0.00047872975
46	0xbd6f0d87	-0.05836251
47	0xbd028db1	-0.03187341
48	0x39946534	0.00028304162
49	0x3c32f416	0.010922452
50	0xbd8ae83e	-0.06782578
51	0x3da2dcf8	0.07952303
52	0xbdef2050	-0.11676085
53	0x3d78bb2a	0.06072537
54	0x3cc4cdd3	0.024023926
55	0xbb617753	-0.0034403398
56	0xbd52f273	-0.05150075
57	0xbbab4b07	-0.00522745
58	0xbd852756	-0.06501643
59	0x3c57242b	0.013131182
60	0x3ecc741f	0.39932343
61	0x3cd9dae6	0.026593637
62	0x3d50fea7	0.051024105
63	0x3c9e87d7	0.019351883
64	0xb91cae9e	-0.0001494237
65	0xbdecc80d	-0.11561594
66	0xbd3d5e56	-0.046232544
67	0xbc878dc9	-0.0165471
68	0xbce72ee9	-0.02822061
69	0xbd2a2a2a	-0.041544117
70	0x3c1550b2	0.009113478
71	0xbca3a596	-0.019976418
72	0x3d5ee196	0.054414354
73	0x385c9ae7	5.259635e-05
74	0x3bedf348	0.0072616674
75	0xb992ced6	-0.00028001395
76	0x37ca5174	2.4118206e-05
77	0xb84f349a	-4.9401635e-05
78	0xb9f040c4	-0.0004582462
79	0x3d43336a	0.047656454
80	0xb8c81624	-9.540867e-05
81	0x3adbd535	0.0016771915
82	0xb9853e82	-0.0002541431
83	0xbd03c3f1	-0.032169286
84	0xbc0e5382	-0.008686902
85	0xb915957a	-0.00014265432
86	0xbbfe0d6a	-0.007753064
87	0x3d9ba42a	0.07599671
88	0xb8b79b39	-8.7550325e-05
89	0xbd300401	-0.04297257
90	0xb9922be6	-0.00027879997
91	0x3a89d5a2	0.0010515938
92	0xbd417f42	-0.047240503
93	0xb95d4531	-0.00021101978
94	0x385dc1c0	5.287095e-05
95	0x3db95d12	0.09050955
96	0xb9025921	-0.00012430969
97	0x3c652d62	0.013987871
98	0x388b709e	6.649013e-05
99	0x3b4370e6	0.0029821931
100	0xbc3eda69	-0.011648753
101	0x3d16eb70	0.036845624
102	0xb9955390	-0.00028481754
103	0xb9541de4	-0.0002022903
104	0xb85d29c1	-5.2729392e-05
105	0x3c94ad4c	0.01814904
106	0xb6e54c41	-6.833609e-06
107	0xb8cd4e29	-9.78972e-05
108	0xb99a7904	-0.00029463333
109	0x38e68600	0.00010992214
110	0x3dd9c0a9	0.1063245
111	0x3ca82312	0.020524535
112	0x397acc2b	0.00023917916
113	0xb936068e	-0.00017359314
114	0xbda78d34	-0.08181229
115	0xbc72cb70	-0.014819011
116	0x38a5b709	7.901906e-05
117	0xbd72a72b	-0.059241455
118	0xb7528eae	-1.2550196e-05
119	0xb89d262a	-7.493452e-05
120	0xb8d336ee	-0.000100714955
121	0x3c10ba23	0.008833441
122	0xbdb444cc	-0.088021845
123	0x3d428b9e	0.04749643
124	0xb9c99576	-0.00038449065
125	0x3c9b1304	0.018929966
126	0xb920f42a	-0.00015349747
127	0xb6d4672d	-6.3301036e-06
128	0xbcf9a955	-0.030476252
129	0xbd2966cb	-0.041357797
130	0xbd5a3c7e	-0.053280346
131	0xbd822a5e	-0.06355737
132	0xbdab7f8b	-0.08373936
133	0x3dcf5709	0.101240225
134	0x3b8c1f06	0.004276159
135	0x3e01141d	0.12605329
136	0x3cca8336	0.02472077
137	0xbd2eec0d	-0.042705584
138	0xbd50824e	-0.05090552
139	0x3c7b2b64	0.015330169
140	0xbd2818c3	-0.04103924
141	0xbb36e25a	-0.0027905912
142	0xbdcbcf3f	-0.099516384
143	0xbd95a4cc	-0.07306823
144	0x3ab61b33	0.0013893604
145	0xbd26b7e0	-0.0407027
146	0x3e15dccd	0.1463501
147	0xbd3491f6	-0.04408451
148	0xbda36bde	-0.079795584
149	0x3d6f0e06	0.058362983
150	0xbcc7a623	-0.024371212
151	0xbde5a0e8	-0.11212331
152	0x3d65f24a	0.056139268
153	0xbcccf0a8	-0.025017098
154	0xbeb4c2d1	-0.35304883
155	0xbcb0c295	-0.021577159
156	0x3ba20b88	0.0049452223
157	0xbd01d6a2	-0.03169883
158	0x3dc0bd71	0.09411133
159	0xbdbaa6bc	-0.09113833
160	0x3c7456e6	0.014913296
161	0xbcbeae40	-0.023276448
162	0xbd8a45de	-0.06751607
163	0x3d3b754e	0.045766167
164	0x3a22cc02	0.0006210209
165	0xbe1701cf	-0.14746784
166	0x3e073be9	0.13206448
167	0x3e5ad96a	0.21372
168	0x3d665b29	0.05623928
169	0xbd01b6d9	-0.031668518
170	0xbd402e62	-0.046919234
171	0x3d7853f8	0.060626954
172	0xbd06d90f	-0.032921847
173	0xbd497b79	-0.04919002
174	0x3d06304c	0.032760903
175	0x3d6e5816	0.058189474
176	0x3d9efa69	0.07762606
177	0x3daeecc0	0.0854125
178	0x3dedaae8	0.116048634
179	0xbb994389	-0.0046772403
180	0xbce10de6	-0.027472448
181	0x3d7a1f9f	0.061065312
182	0xbcc07f59	-0.023498224
183	0x3def01b0	0.11670244
184	0x3c241f94	0.010017294
185	0xbd4b70d7	-0.04966816
186	0xbd3bd8df	-0.04586112
187	0x3da04a9d	0.07826731
188	0x3e7d7421	0.24751331
189	0xbda44545	-0.080210246
190	0x3d778883	0.060432922
191	0xbe929cd2	-0.2863527
192	0x3db31d36	0.08745806
193	0x3ab21630	0.0013586935
194	0x3d9ed9b7	0.077563696
195	0xbc1a6fd1	-0.009426073
196	0x3d92bf13	0.07165351
197	0xbc8bd0a7	-0.017067267
198	0x3d2f2471	0.042759363
199	0xbd5e584c	-0.054283425
200	0x3c5d5197	0.013508222
201	0xbe5a1029	-0.21295227
202	0x3d564b44	0.052317873
203	0x3dbcaa4c	0.09212169
204	0x3d436922	0.047707684
205	0x3de17885	0.110093154
206	0xbd2462b4	-0.040133193
207	0x3d6d9064	0.05799903
208	0xbe7ce30b	-0.24695985
209	0xbd956e14	-0.07296386
210	0x3e23b563	0.15987162
211	0x3d997912	0.074937955
212	0xbd7ac13c	-0.06121944
213	0xbd8e7174	-0.06955233
214	0xbbaf2a14	-0.0053455923
215	0xbb501d84	-0.0031755874
216	0x3e4ab021	0.1979375
217	0xbd0fe2a0	-0.035128236
218	0x3db65c95	0.08904377
219	0xbbce814a	-0.0063020336
220	0xbd07cca5	-0.03315415
221	0x3e314159	0.17310084
222	0xbc380bc1	-0.011233271
223	0xbc09c107	-0.008407838
224	0xbe5ca2e2	-0.2154651
225	0x3a5e6102	0.0008483083
226	0xbd2390e8	-0.039933115
227	0x3c297bce	0.010344459
228	0x3bb4474d	0.005501664
229	0x3c77322b	0.015087645
230	0x3d604f0c	0.054762885
231	0x3c0a42d4	0.008438785
232	0xbe71731e	-0.2357907
233	0xbd567d42	-0.05236555
234	0x3e91c285	0.2846872
235	0x3dae5dc9	0.08513982
236	0xbdaaa53e	-0.08332299
237	0x3d9125e8	0.07087308
238	0xbc82d8ae	-0.015972462
239	0x3c5c976d	0.013463837
240	0xbd6660c9	-0.056244645
241	0x3dbdfc31	0.09276617
242	0x3ce55447	0.027994288
243	0xbdb74980	-0.08949566
244	0x3d275b22	0.040858395
245	0xbd3f08fd	-0.04663943
246	0x3c0b2421	0.0084925005
247	0x3e39e76e	0.1815469
248	0x3d9fa6e4	0.07795504
249	0xbda3540c	-0.07975015
250	0xbb6d439f	-0.0036203635
251	0xbd9a95e5	-0.07548121
252	0x3dc0b89b	0.09410211
253	0x3b0044ce	0.001957226
254	0x3ddb00c5	0.10693506
255	0x3cfbd1bb	0.030739656

fc3.bias f4 [4]
0	0x3f0ce26f	0.5503301
1	0x3da95fb5	0.08270208
2	0x3ee9328c	0.45546377
3	0x3f133f54	0.57518506
